April 7th Test/model.pth (torch, 20072 bytes, 7 tensors)

0.weight f4 [32, 3]
5.831096 -2.6244845 -0.007177607 5.3823667 -0.09251121 0.0010271639 2.8988857 0.2935154
-0.012436816 -1.3617995 -3.5204585 0.01671819 5.0611153 -7.340752 -0.0088106645 2.498081
-2.6743057 0.28418767 0.30337512 -5.283864 0.050058253 0.3106853 3.507631 -0.011837624
0.7195421 6.4368258 8.080417e-05 -4.72393 4.227146 -0.003679472 -4.3961706 7.662951
0.28227893 -0.086294316 -0.6100978 -0.683031 -0.8979247 0.9919801 -0.015261984 -0.042635083
-2.5656831 -0.028351407 2.2509456 -0.07162924 -0.00033040138 1.1216996 -4.14923 -0.13664322
-0.014922542 -0.2935175 -0.5376374 3.2982452 -18.834696 0.008322768 -3.2879126 -0.33117035
-0.010890877 2.422908 -4.0810328 0.059864324 -3.9434025 6.2183776 0.008981109 1.4078013
0.6975267 -0.0047140177 -15.735695 13.346675 3.9749804e-05 -2.4302669 4.6195693 0.3192815
1.2001543 0.35989445 -0.0059072305 17.441376 12.029604 -0.00016638068 1.1905774 -0.53598624
-0.22467437 2.1640337 -13.304294 0.019266913 1.2215753 -0.89543176 -0.0047609047 -3.0576646
5.6234703 0.010721613 0.09480529 0.7807673 -0.002345895 0.84097654 0.7082419 -0.0075985473
00000000: 5798 ba40 8ef7 27c0 2232 ebbb 593c ac40
00000010: 8476 bdbd e7a1 863a 5887 3940 a747 963e
00000020: c9c3 4bbc 724f aebf 314f 61c0 96f4 883c
00000030: a8f4 a140 71e7 eac0 9b5a 10bc 8fe0 1f40
00000040: d327 2bc0 0c81 913e fc53 9b3e 6a15 a9c0
00000050: e209 4d3d 2512 9f3e 077d 6040 98f2 41bc
00000060: e933 383f 7afa cd40 6975 a938 6f2a 97c0
00000070: c844 8740 4c23 71bb 6ead 8cc0 e536 f540
00000080: dd86 903e 13bb b0bd 5f2f 1cbf 1fdb 2ebf
00000090: 65de 65bf 68f2 7d3f 670d 7abc 20a2 2ebd
000000a0: 2734 24c0 3641 e8bc 7e0f 1040 5ab2 92bd
000000b0: b939 adb9 da93 8f3f 7ec6 84c0 33ec 0bbe
000000c0: ad7d 74bc ed47 96be 9ba2 09bf 7316 5340
000000d0: 75ad 96c1 385c 083c 296d 52c0 298f a9be
000000e0: a66f 32bc ed10 1b40 d297 82c0 4b34 753d
000000f0: b560 7cc0 f3fc c640 8025 133c d532 b43f
00000100: 1c91 323f 0c78 9abb 68c5 7bc1 fb8b 5541
00000110: 07b9 2638 7e89 1bc0 83d3 9340 dd78 a33e
00000120: a89e 993f 1644 b83e 7191 c1bb f087 8b41
00000130: 4279 4041 7976 2eb9 d764 983f 6536 09bf
00000140: 0a11 66be 877f 0a40 63de 54c1 a5d5 9d3c
00000150: 945c 9c3f 043b 65bf 5d01 9cbb c7b0 43c0
00000160: 78f3 b340 b4a9 2f3c 4729 c23d 5ee0 473f
00000170: 96bd 19bb 3d4a 573f 574f 353f 3cfd f8bb

0.bias f4 [32]
5.295504 7.7921495 -4.3124633 3.259261 4.4926133 4.729624 -5.564686 -1.1901742
5.8542347 -8.076371 -7.3097286 -0.6866821 0.22825512 5.2084446 0.88032985 5.0141487
-0.53331006 6.32355 -4.8377967 7.474377 -7.0582047 -0.3818504 1.8817253 -6.267975
0.01017325 -0.34842208 4.501167 3.42136 0.32791469 -1.9103929 9.152754 5.1554537
00000000: c574 a940 4a59 f940 b3ff 89c0 bb97 5040
00000010: 7dc3 8f40 1459 9740 e811 b2c0 a157 98bf
00000020: e455 bb40 d138 01c1 4ce9 e9c0 66ca 2fbf
00000030: b6bb 693e 94ab a640 4c5d 613f e873 a040
00000040: 0287 08bf 865a ca40 3bcf 9ac0 192e ef40
00000050: d0dc e1c0 e581 c3be 60dc f03f 4093 c8c0
00000060: b4ad 263c 6164 b2be 8f09 9040 90f7 5a40
00000070: 6fe4 a73e c187 f4bf ae71 1241 7af9 a440

2.weight f4 [64, 32]
-0.344092 -0.123919286 -0.17403516 -0.059934787 -0.07619686 -0.042724464 -0.070494466 -0.33279908
-0.3998961 -0.29080194 -0.17430697 -0.10154408 -0.3877082 0.035665497 0.039757427 0.20646302
0.044451036 -0.31050906 -0.08443992 0.031742107 -0.030300548 -0.17506932 0.08178968 -5.9302718e-05
0.073091015 -0.2490113 0.09565692 0.028691538 0.01902947 -0.012208609 0.05147521 -0.36405572
-0.20932007 -0.63159037 -0.21597785 -0.097260445 -0.14282548 -0.15764157 -0.12718591 -0.17469847
-0.11013441 -0.2590508 -0.004174297 -0.17530532 -0.020509318 -0.61259216 -0.04164783 -0.81030506
0.030111289 -0.13268284 -0.025982928 -0.08456186 -0.18511318 0.08705445 -0.40139475 0.012349454
0.15711282 0.24453315 -0.08963235 0.0016000365 0.040964324 -0.19759995 -0.60397196 -0.04843599
-0.16400765 -0.21203305 -0.15713686 -0.011666428 -0.8069974 0.09490656 -0.155494 -0.2853965
0.6580647 -0.4406998 -0.12857342 0.04118959 -0.022210022 0.15404654 -0.18984239 -0.35789582
0.03955115 -0.44237128 0.13954091 0.13522622 -0.124145694 -0.2152401 0.075160176 0.044424802
0.4601442 0.019499738 0.21503916 -0.17362878 -0.2455894 0.06752679 0.8910776 0.057109863
-0.12255782 -0.023542678 -0.28288612 0.0075001777 -0.19113404 -0.18795396 -0.20012696 -0.15998131
-0.13523601 -0.19975002 -0.002479352 0.0046873456 0.03327008 -0.036882974 -0.07984957 -0.092880204
0.012754543 -0.017665893 -0.12389865 -0.18947908 -0.050599072 -0.046342753 0.026624873 -0.061744347
-0.13346896 -0.24362428 -0.027867952 -0.10885845 -0.04519143 0.033832297 0.118315555 -0.13127029
-0.08421732 0.04768117 -0.2117676 0.046009798 -0.12949872 -0.26398712 0.061778054 -0.15224694
-0.09967966 -0.12262427 -0.09712949 0.0376666 -0.03644746 -0.03987999 -0.034469895 0.2448279
0.14080252 -0.14807716 0.040328596 -0.07359476 -0.049163137 -0.2247393 -0.045118876 -0.1272424
-0.070261165 -0.04995337 0.047112126 -0.26129752 -0.06814028 -0.35974628 0.21017046 -0.2686517
-0.080018416 -0.22286722 -0.042550772 0.010826951 0.07375937 0.13427073 -0.029614478 0.4653907
0.18971798 -0.040673763 0.0586206 0.04438887 0.111784756 -0.3204461 -0.05951692 -0.77615786
-0.010489044 0.31666782 0.38165802 -0.12257165 -0.012924918 0.015490257 -0.12753302 -0.11424511
-0.34794617 -0.14897543 0.30291247 -0.059403274 -0.299813 -0.12562022 0.12538745 0.0011273468
0.022405142 0.059776243 0.052958403 0.095384374 0.17523094 -0.005797487 0.1218364 -0.2324025
0.03564612 0.0015143362 -0.121227555 0.013236744 -0.06291738 -0.19647399 -0.14638662 0.0021319615
-0.15589942 -0.015342644 -0.21449505 -0.18205579 0.09157166 -0.08682855 -0.18777475 0.001753583
-0.10152099 -0.07566206 0.19148047 -0.006023207 -0.22618537 -0.06384218 -0.12872624 -0.16496894
-0.04490493 0.16262192 -0.0898394 -0.12761647 -0.011563149 -0.22250524 -0.16807866 -0.31296933
0.006780957 -0.17907034 -0.09076722 -0.025533265 -0.16514455 0.060830094 -0.089019805 0.06350368
0.041879974 0.13765712 -0.12150446 -0.07797086 -0.21330914 0.07664439 -0.017250793 -0.13094452
0.14376174 -0.35317412 -0.07424125 -0.01322485 -0.2079854 -0.5306963 0.05004972 -0.21538594
00000000: d42c b0be 65c9 fdbd 4636 32be 2e7e 75bd
00000010: 190d 9cbd d9ff 2ebd 675f 90bd a464 aabe
00000020: 2ebf ccbe fee3 94be 877d 32be 58f6 cfbd
00000030: b081 c6be fc15 123d afd8 223d 0b6b 533e
00000040: 4a12 363d 0bfb 9ebe d6ee acbd 0304 023d
00000050: db38 f8bc 5f45 33be 5981 a73d cfbb 78b8
00000060: beb0 953d d1fc 7ebe c6e7 c33d 840a eb3c
00000070: b1e3 9b3c 9e06 48bc abd7 523d 8365 babe
00000080: 0058 56be e8af 21bf 4c29 5dbe 7c30 c7bd
00000090: d840 12be cb6c 21be 063d 02be 28e4 32be
000000a0: 268e e1bd 4ea2 84be 8bc8 88bb 3d83 33be
000000b0: 2803 a8bc d7d2 1cbf ea96 2abd 2770 4fbf
000000c0: f3ab f63c 03de 07be 26da d4bc c52e adbd
000000d0: 4f8e 3dbe 9a49 b23d 9d83 cdbe 5d55 4a3c
000000e0: 2fe2 203e e666 7a3e 2a91 b7bd 51b8 d13a
000000f0: 35ca 273d a457 4abe e89d 1abf d164 46bd
00000100: 9ff1 27be 311f 59be 7ce8 20be 8c24 3fbc
00000110: 6297 4ebf 5f5e c23d d239 1fbe 7d1f 92be
00000120: ee76 283f 67a3 e1be c0a8 03be 6ab6 283d
00000130: cbf1 b5bc 60be 1d3e 0b66 42be 1f3e b7be
00000140: 6300 223d 7d7e e2be d0e3 0e3e be78 0a3e
00000150: 1940 febd e767 5cbe 94ed 993d c8f6 353d
00000160: 0598 eb3e eabd 9f3c 3a33 5c3e becb 31be
00000170: ca7b 7bbe 7c4b 8a3d a91d 643f 08ec 693d
00000180: 98ff fabd 93dc c0bc 73d6 90be 0dc4 f53b
00000190: a4b8 43be 0177 40be 15ee 4cbe 24d2 23be
000001a0: 4f7b 0abe 458b 4cbe a07c 22bb 4e98 993b
000001b0: 3546 083d 9a12 17bd 2c88 a3bd fa37 bebd
000001c0: 6ef8 503c 10b8 90bc 93be fdbd ce06 42be
000001d0: f940 4fbd e6d1 3dbd 681c da3c a4e7 7cbd
000001e0: 16ac 08be a578 79be 554b e4bc 2ef1 debd
000001f0: a61a 39bd bc93 0a3d 6d4f f23d b86b 06be
00000200: 217a acbd 554d 433d 9bd9 58be c574 3c3d
00000210: 509b 04be 5229 87be fc0a 7d3d 9fe6 1bbe
00000220: d924 ccbd 6f22 fbbd d3eb c6bd 4b48 1a3d
00000230: ef49 15bd 3359 23bd 4e30 0dbd 2ab4 7a3e
00000240: 892e 103e 8aa1 17be 992f 253d d9b8 96bd
00000250: 495f 49bd 0f22 66be 92ce 38bd d54b 02be
00000260: 16e5 8fbd e89b 4cbd a5f8 403d cac8 85be
00000270: 228d 8bbd aa30 b8be ed36 573e b78c 89be
00000280: b2e0 a3bd 4e37 64be b849 2ebd 8663 313c
00000290: 270f 973d 447e 093e 109a f2bc b147 ee3e
000002a0: 6e45 423e 8899 26bd 271c 703d 1bd1 353d
000002b0: 68ef e43d 8311 a4be 04c8 73bd 48b2 46bf
000002c0: 3dda 2bbc 4922 a23e ae68 c33e d806 fbbd
000002d0: 09c3 53bc d9ca 7d3c 0498 02be 57f9 e9bd
000002e0: 0026 b2be 048d 18be 5817 9b3e d950 73bd
000002f0: 1781 99be 96a2 00be 9165 003e 7bc3 933a
00000300: fd8a b73c efd7 743d e9ea 583d e258 c33d
00000310: bd6f 333e d9f8 bdbb 5d85 f93d ecfa 6dbe
00000320: aa01 123d b17c c63a 2746 f8bd eede 583c
00000330: d4da 80bd 7a30 49be 60e6 15be 61b8 0b3b
00000340: 19a4 1fbe b75f 7bbc 97a4 5bbe d56c 3abe
00000350: ec89 bb3d 2bd3 b1bd 0648 40be 7bd8 e53a
00000360: 3dea cfbd b6f4 9abd 7513 443e 535e c5bb
00000370: 239d 67be b0bf 82bd d0d0 03be 9eed 28be
00000380: 3bee 37bd 5c86 263e b8fd b7bd e4ad 02be
00000390: 5d73 3dbc 6ad8 63be d01c 2cbe 843d a0be
000003a0: ca32 de3b 375e 37be 2ae4 b9bd 232b d1bc
000003b0: a71b 29be fa28 793d 0450 b6bd 380e 823d
000003c0: 568a 2b3d fdf5 0c3e 55d7 f8bd 30af 9fbd
000003d0: b66d 5abe bcf7 9c3d 8951 8dbc 5216 06be
000003e0: 4736 133e 3dd3 b4be cc0b 98bd 0bad 58bc
000003f0: 20fa 54be b6db 07bf ef00 4d3d 228e 5cbe

2.bias f4 [64]
0.4479569 -4.840696 5.5108175 0.06289559 0.9262862 1.1786014 -0.14465213 0.45995688
-0.99729484 3.190863 -0.5803496 4.7103705 0.14100395 0.7938063 0.33739477 -0.96177715
5.5759583 -0.0039385594 2.027887 -0.30810457 0.34953737 -0.95502174 -0.21831444 -0.5496359
-3.186869 0.22253187 -2.7309704 0.0040577087 -0.12869503 -0.54078823 0.026855214 -3.2176285
-0.19387832 0.4745003 5.890615 2.009119 2.4978435 -0.082251675 -2.426735 -0.19774868
-2.7452397 3.6906114 2.408739 -0.23004477 -0.36833113 -0.006050406 0.70614326 0.8555806
0.11501361 -1.6496664 -0.14255674 -3.0482447 0.7782568 5.365513 0.9521152 -0.10671432
1.9921585 0.47450024 0.01941227 1.8943945 1.6896324 -0.121294715 0.06571329 0.080435514
00000000: 9b5a e53e fbe6 9ac0 9e58 b040 67cf 803d
00000010: 1821 6d3f 69dc 963f b01f 14be 787f eb3e
00000020: b74e 7fbf 1937 4c40 cb91 14bf 5bbb 9640
00000030: 5763 103e e436 4b3f 02bf ac3e 0737 76bf
00000040: 406e b240 080f 81bb e7c8 0140 e2bf 9dbe
00000050: 90f6 b23e 4e7c 74bf d28d 5fbe f0b4 0cbf
00000060: a9f5 4bc0 65df 633e 38c8 2ec0 87f6 843b
00000070: a1c8 03be 1971 0abf 77ff db3c a0ed 4dc0
00000080: 0a88 46be b4f1 f23e eb7f bc40 6895 0040
00000090: abdc 1f40 9173 a8bd a04f 1bc0 a17e 4abe
000000a0: 02b2 2fc0 fa32 6c40 c828 1a40 db90 6bbe
000000b0: e695 bcbe 7c42 c6bb cec5 343f 5507 5b3f
000000c0: 418c eb3d 4528 d3bf 65fa 11be 7116 43c0
000000d0: d63b 473f 48b2 ab40 d2bd 733f 0a8d dabd
000000e0: 0dff fe3f b2f1 f23e 7b06 9f3c 857b f23f
000000f0: e045 d83f 5d69 f8bd b094 863d 60bb a43d

4.weight f4 [32, 64]
0.095292054 0.133947 -0.03814546 -0.08561975 -0.07837763 -0.0006896389 0.18573841 0.075760305
-0.08792235 0.009160691 0.090192385 0.005402404 0.045982074 0.07988885 0.020813443 0.26721394
0.07298083 0.20236015 0.0144935865 -0.0026750073 -0.071577184 0.051383685 -0.09127807 0.32041043
-0.05347095 -0.065918624 -0.049427446 0.013166606 -0.04995198 -0.11595762 -0.12239582 0.046865392
0.14899124 -0.09165999 0.017032597 -0.022303313 -0.08523603 0.0917557 0.021200724 -0.014621895
0.05235104 -0.017329235 -0.06982244 -0.118700005 0.0564148 -0.032397773 -0.18826145 0.083346315
0.016372124 0.06513699 0.07166721 0.0073261037 0.05203011 -0.14186414 -0.08659066 -0.074908465
0.14113015 -0.012589363 -0.19870667 0.02817812 0.0011262889 -0.037236203 0.03296158 0.018122043
0.004796529 0.07323358 0.005629457 -0.061678916 0.020855566 -0.09485312 -0.07413283 0.08260656
0.09911063 -0.07612239 -0.03501947 -0.047249455 0.07576517 -0.041715294 0.06878122 0.09348509
-0.29592648 0.06063132 0.021215074 -0.049230233 0.04525063 -0.11393895 0.028145628 0.043230288
0.043728687 -0.13623191 -0.131792 0.12187366 -0.08398612 -0.025557509 -0.011792615 -0.12346823
0.0760757 -0.0937842 -0.09789729 -0.07237514 -0.08523573 0.0837518 0.03365481 -0.034733072
0.07083941 0.05948013 -0.12406992 -0.13573791 0.085565396 -0.06556526 -0.01951786 0.16745955
-0.12283479 -0.09006498 -0.010366425 -0.048182104 0.046917938 -0.16343799 0.060344815 -0.03966336
-0.08409031 -0.030936506 0.10008543 -0.10496882 -0.14429326 -0.06807299 -0.0035859912 -0.03443089
0.029356573 -0.034118466 0.00017486536 -0.09534508 0.22352049 -0.6114848 -0.014024891 0.14870533
0.032937087 0.03998458 0.03156917 0.0062698093 -0.25210324 -0.08766437 -0.09943626 -0.21686669
0.41336957 -0.310744 0.44173107 -0.16891302 -0.072779834 0.020320639 -0.0981221 0.107522555
-0.024746832 0.056635547 -0.104671285 0.025524706 -0.0014359653 0.119416006 -3.3568504e-05 0.005554035
0.04543107 0.1074403 0.022340564 -0.02785058 -0.107408725 -0.045189545 0.09180075 -0.0321592
0.035133723 0.04620106 0.036535542 0.17310522 -0.25188574 0.09037328 0.008203616 -0.13899672
-0.048886478 -0.11003585 0.13418928 0.029252935 -0.020804867 0.31494653 -0.08211527 -0.0636728
0.041244544 0.21444082 -0.08718537 -0.09699395 0.03207928 0.06844616 0.053187158 -0.28041038
0.1549266 0.102416806 -0.0006858641 -0.06812299 0.08220722 0.17395143 -0.028710645 0.11015886
0.027311346 -0.029402278 -0.006819187 0.10560876 0.11442129 0.016158797 -0.009642278 0.0043149497
0.17328963 0.24545564 0.045994952 -0.10216293 -0.063188106 0.0909769 -0.02873871 0.0683964
-0.097144894 -0.0077807344 0.07872617 0.094847426 -0.08089893 0.059797004 -0.03398398 -0.024073051
-0.08504626 0.0077203196 0.008247776 0.059314348 0.0650141 0.10079975 0.082088836 -0.049249966
0.023403352 0.10963639 0.002390767 0.034890465 -0.074407585 -0.0900435 0.044952165 -0.12165671
-0.034265205 0.07004005 0.15690304 -0.029254114 0.009887394 0.29242668 -0.015887292 0.0467085
-0.027093949 0.020677784 -0.07262809 -0.003669866 -0.030615052 -0.016966367 0.050241314 -0.14853443
00000000: 7b28 c33d 6729 093e 6a3e 1cbd 6859 afbd
00000010: 7384 a0bd e2c8 34ba 3632 3e3e 3828 9b3d
00000020: a210 b4bd b916 163c c9b6 b83d a606 b13b
00000030: b357 3c3d c49c a33d f480 aa3c 44d0 883e
00000040: f976 953d 8037 4f3e 8276 6d3c 2d4f 2fbb
00000050: 0f97 92bd b377 523d ffef babd d60c a43e
00000060: 5b04 5bbd 5800 87bd 6f74 4abd c0b8 573c
00000070: 739a 4cbd 307b edbd a9aa fabd edf5 3f3d
00000080: 2991 183e 3cb8 bbbd f287 8b3c 70b5 b6bc
00000090: 3a90 aebd 6aea bb3d 24ad ad3c ac90 6fbc
000000a0: 0b6e 563d 0af6 8dbc 11ff 8ebd fd18 f3bd
000000b0: 3513 673d 87b3 04bd 9cc7 40be 79b1 aa3d
000000c0: d51e 863c 8b66 853d 42c6 923d d00f f03b
000000d0: 861d 553d d544 11be 7256 b1bd 9c69 99bd
000000e0: 6c84 103e 9e43 4ebc c379 4bbe cdd5 e63c
000000f0: fc9f 933a fd84 18bd b902 073d ae74 943c
00000100: 342c 9d3b 7dfb 953d 4f77 b83b 08a3 7cbd
00000110: 4bd9 aa3c 5a42 c2bd f4d2 97bd a12d a93d
00000120: 84fa ca3d 0ee6 9bbd 9370 0fbd a588 41bd
00000130: c52a 9b3d a8dd 2abd 2bdd 8c3d 1c75 bf3d
00000140: ad83 97be 8c58 783d 3ccb ad3c a4a5 49bd
00000150: b958 393d d358 e9bd a991 e63c 3e12 313d
00000160: da1c 333d 6180 0bbe 7bf4 06be e698 f93d
00000170: ea00 acbd fb5d d1bc d035 41bc e9dc fcbd
00000180: 94cd 9b3d ee11 c0bd 607e c8bd 6b39 94bd
00000190: 1290 aebd 1086 ab3d a0d9 093d 4444 0ebd
000001a0: 4114 913d 70a1 733d 5f18 febd e1fe 0abe
000001b0: e93c af3d 1447 86bd ebe3 9fbc 847a 2b3e
000001c0: ce90 fbbd fd73 b8bd f0d7 29bc 995a 45bd
000001d0: 062d 403d 4a5c 27be 202c 773d 0c76 22bd
000001e0: 8a37 acbd 8e6e fdbc 97f9 cc3d e5f9 d6bd
000001f0: 9dc1 13be da69 8bbd f302 6bbb 6807 0dbd
00000200: 327d f03c cebf 0bbd 105c 3739 4844 c3bd
00000210: 8ee2 643e 458a 1cbf a8c8 65bc 3646 183e
00000220: 0ae9 063d dfc6 233d ad4e 013d f972 cd3b
00000230: ad13 81be 6189 b3bd 3da5 cbbd 4d12 5ebe
00000240: 2da5 d33e d619 9fbe 932a e23e 89f7 2cbe
00000250: 980d 95bd 7877 a63c 3df4 c8bd c934 dc3d
00000260: deb9 cabc adfa 673d e65d d6bd 3019 d13c
00000270: 0037 bcba 6190 f43d e8cb 0cb8 9ffe b53b
00000280: ee15 3a3d a909 dc3d 8f03 b73c e626 e4bc
00000290: 1bf9 dbbd ac18 39bd 0802 bc3d 5eb9 03bd
000002a0: 61e8 0f3d 533d 3d3d 4ba6 153d 7f42 313e
000002b0: 2bf7 80be a015 b93d 7668 063c 2855 0ebe
000002c0: 303d 48bd 7a5a e1bd ea68 093e daa3 ef3c
000002d0: f86e aabc ac40 a13e 0d2c a8bd e366 82bd
000002e0: 0af0 283d 6096 5b3e 3e8e b2bd c4a4 c6bd
000002f0: 9065 033d 802d 8c3d c7da 593d f391 8fbe
00000300: 14a5 1e3e e7bf d13d 90cb 33ba 1184 8bbd
00000310: 425c a83d 5320 323e 9632 ebbc f89a e13d
00000320: 0bbc df3c 0cdd f0bc 7d73 dfbb 6849 d83d
00000330: b655 ea3d 745f 843c a5fa 1dbc 6c64 8d3b
00000340: d672 313e b958 7b3e 3465 3c3d cc3a d1bd
00000350: c468 81bd 1952 ba3d 716d ebbc 6913 8c3d
00000360: e7f3 c6bd 88f5 febb 303b a13d 5e3f c23d
00000370: 57ae a5bd b4ed 743d c932 0bbd d934 c5bc
00000380: bc2c aebd bcfa fc3b ae21 073c 9af3 723d
00000390: 1d26 853d 1970 ce3d 311e a83d 55ba 49bd
000003a0: 63b8 bf3c 0b89 e03d 6aae 1c3b 4ee9 0e3d
000003b0: 0163 98bd ba68 b8bd c31f 383d 2727 f9bd
000003c0: ac59 0cbd 2871 8f3d 31ab 203e 53a6 efbc
000003d0: bcfe 213c f3b8 953e 1126 82bc 6951 3f3d
000003e0: 21f4 ddbc 7564 a93c 09be 94bd 2282 70bb
000003f0: 6bcc fabc 0dfd 8abc d6c9 4d3d 6919 18be

4.bias f4 [32]
6.507571 -1.3953327 -3.2425957 -6.5734043 5.094984 -6.230686 -1.9079005 -0.06846827
7.1081963 -2.1128078 2.625937 -0.07949374 7.0759835 6.583211 1.2924689 -6.6745496
-6.4267015 1.5231478 -5.3533545 7.7577066 -0.35275155 7.0287433 5.212333 -0.277593
-0.16069752 7.2470636 7.550615 5.1534863 6.5679975 -0.019721178 6.8219824 -5.234445
00000000: 063e d040 439a b2bf b086 4fc0 5459 d2c0
00000010: 1c0a a340 c861 c7c0 1536 f4bf 1839 8cbd
00000020: 5876 e340 3e38 07c0 5a0f 2840 9dcd a2bd
00000030: 756e e240 aaa9 d240 9f6f a53f e995 d5c0
00000040: 8aa7 cdc0 82f6 c23f ae4e abc0 223f f840
00000050: da9b b4be 77eb e040 6fcb a640 ab20 8ebe
00000060: e48d 24be f2e7 e740 a39e f140 5ce9 a440
00000070: 092d d240 4f8e a1bc ae4d da40 9380 a7c0

6.weight f4 [1, 32]
0.46514472 -0.022503484 -0.18976024 -0.19764277 -0.11012887 -0.08533717 -0.027185068 -0.08807169
0.5372532 -0.2041699 0.08578498 0.0013274824 0.29132822 0.54122996 0.39987957 -0.23023552
-0.15864329 0.111496314 -0.20777792 0.50466067 -0.039066568 0.48747224 0.14310542 -0.036503203
-0.001788696 0.6761815 0.6787257 0.14304765 0.6049479 -0.10568594 0.5511202 -0.03205865
00000000: 7327 ee3e 3a59 b8bc 8250 42be de62 4abe
00000010: 3f8b e1bd 41c5 aebd 38b3 debc ee5e b4bd
00000020: 6d89 093f ea11 51be 09b0 af3d ebfe ad3a
00000030: f928 953e 0c8e 0a3f 04bd cc3e dcc2 6bbe
00000040: 6373 22be 2e58 e43d bcc3 54be 7131 013f
00000050: 4404 20bd f695 f93e 3a8a 123e 6284 15bd
00000060: ae72 eaba 3b1a 2d3f f8c0 2d3f 157b 123e
00000070: dedd 1a3f df71 d8bd 3716 0d3f ee4f 03bd
