model.pth (torch, 20072 bytes, 7 tensors)

0.weight f4 [32, 3]
000000 f7 d9 70 c0 c2 6c b5 3d 6e 2c d2 bc fb 10 ab 3e
       -3.7633035 0.088586345 -0.025655951 0.33411393
000010 fb 35 87 40 b7 5e 85 bc 18 8c 9c 41 e0 49 0e 3f
       4.2253394 -0.016280515 19.568405 0.55581474
000020 8e 7c 8a be d3 02 88 bf 31 de 1f 3f 55 eb df bb
       -0.27048153 -1.0625862 0.6244841 -0.0068334737
000030 7e 21 5f c2 a2 9a 7a bc 1d 66 12 b9 c0 52 28 42
       -55.782707 -0.015295656 -0.00013961685 42.08081
000040 2a 4f 9c 3d 91 66 16 b7 b8 63 72 40 2b 8d 29 bf
       0.07632287 -8.964577e-06 3.7873363 -0.6623103
000050 69 ca 04 3c 19 69 01 41 c1 d8 06 bf 06 4f 11 bc
       0.008104899 8.088159 -0.5267449 -0.008868938
000060 75 89 8e 40 12 8d 1d 40 e6 c5 99 bd 5a b7 2d bf
       4.4542794 2.4617352 -0.07508449 -0.678579
000070 a9 1c 7e bf 56 31 c2 bf ae 1f 0d bf 1b 9b 3a 3f
       -0.9926248 -1.5171306 -0.55126464 0.7289292
000080 2c 1f ee bc 52 22 3c 3d 84 a3 2b be 1b d6 46 bf
       -0.029067598 0.045931168 -0.16761595 -0.7767045
000090 ef 91 ba 3d 27 b4 a3 3e b8 4f df bb 99 5e 5f be
       0.09109866 0.31973383 -0.006814923 -0.2181343
0000a0 2b 8b 3a 40 48 5c 22 bd 17 14 04 3f 03 76 e9 c0
       2.9147441 -0.039638788 0.51593155 -7.2956557
0000b0 6c d3 9d bd 47 0e 06 be a5 f2 b9 41 f4 4a 6b 3b
       -0.07706341 -0.13091384 23.243479 0.003590283
0000c0 bd 43 a7 bf 38 2c 10 c2 9a 83 0b bf 97 8e 28 40
       -1.3067547 -36.043182 -0.54497683 2.633703
0000d0 52 86 9b bf a0 1a 86 be b2 9b 98 be 30 ef 26 3e
       -1.2150366 -0.26192188 -0.29806286 0.1630218
0000e0 09 3c 4a bc 3f 23 d0 bf 3c 68 54 c1 90 14 12 bf
       -0.012343415 -1.6260756 -13.275448 -0.57062626
0000f0 1e 18 0c bf fc f3 71 40 e7 87 9e bb 54 d8 c4 3c
       -0.547243 3.7805166 -0.004837978 0.024028935
000100 c4 ab 56 42 18 c6 8a 3a da 8d 46 c1 ef 34 f6 bf
       53.66774 0.0010587601 -12.409632 -1.9234904
000110 ec ca 72 bc ab fe 2b 40 17 0a 02 c0 08 6f d6 bc
       -0.014818888 2.6874187 -2.0318658 -0.02617599
000120 e1 94 63 c0 bb 4f 6d 41 84 84 1d bc 3d d2 0d 3e
       -3.5559618 14.831965 -0.009614114 0.13849731
000130 e1 7d a1 3d 27 9c 69 bc fd 21 fd 3f 07 0c c4 c1
       0.078853376 -0.014258421 1.9775997 -24.505873
000140 85 04 92 be 1d 2d 0e 3f 03 9c 59 41 52 8f 5c 38
       -0.28519073 0.5553759 13.600589 5.2585565e-05
000150 56 6b f6 bf 5a 5f be 41 c3 ab a3 3b 7e 4d 62 bf
       -1.9251506 23.796558 0.004994841 -0.88399494
000160 d7 a1 4e 3f c9 9f ae bd 9e fb 8c 40 a9 d4 66 41
       0.807157 -0.0852657 4.405715 14.426919
000170 82 43 69 bb a9 4e 27 bf fa cc 05 bf 2b 2d 0c be
       -0.0035593216 -0.653544 -0.52265894 -0.13689105

0.bias f4 [32]
000000 20 d7 42 c0 e9 92 36 c1 11 f5 01 41 a4 43 ab 41
       -3.0443802 -11.410867 8.122331 21.408028
000010 4f 06 8e 40 82 a7 53 c0 ae 33 98 c0 7c cb b6 3f
       4.43827 -3.3070989 -4.7563086 1.4280849
000020 b5 3a a2 be 2a fb 47 3f 68 4d 4a 41 0c 0e 3f be
       -0.31685415 0.7811762 12.643898 -0.18657702
000030 88 af c6 41 24 9b e5 bf 2d 21 fa c0 3d 58 88 41
       24.835709 -1.793797 -7.81655 17.043085
000040 90 49 31 41 12 f1 50 40 ff 7f 67 41 fd fa 53 c1
       11.08046 3.2647138 14.468749 -13.248776
000050 50 59 15 42 27 c0 30 c0 4b 78 78 c0 0c a3 93 3f
       37.33722 -2.761728 -3.882342 1.1534133
000060 8e 19 7f 41 8d 53 98 40 01 35 c9 c0 89 da a3 c1
       15.943739 4.760199 -6.28772 -20.481707
000070 14 48 13 c1 f7 98 e5 bf 82 9b c4 41 8a 38 c3 40
       -9.205097 -1.7937306 24.575932 6.1006517

2.weight f4 [64, 32]
000000 b4 ef 91 3d ab ef 9f bd a1 34 21 bd 9c ca 42 be
       0.07125798 -0.07809385 -0.03935683 -0.19022602
000010 a6 fe ce bd 63 8a 79 be 56 c6 27 be 17 82 ad b9
       -0.10107164 -0.24369197 -0.16384253 -0.00033094056
000020 99 4e 02 3e 65 f0 e0 3d d2 d9 c0 bd b2 10 b7 3b
       0.12725295 0.109833516 -0.09416546 0.005586707
000030 c0 46 fb bc 9e 3d 45 3e 9f 67 f4 bc 1d 47 9e bd
       -0.030673385 0.19261786 -0.029834567 -0.077284075
000040 95 9b 56 3b 61 2f 52 3d 47 65 02 3d 7a 94 f3 bd
       0.0032746543 0.051314715 0.031834867 -0.11893554
000050 f8 04 ee bd 4f f3 30 be 46 a5 9a 3d e7 99 31 bd
       -0.116220415 -0.17280315 0.07551055 -0.043359663
000060 95 24 4e bd e9 c3 d1 3b c0 ac 58 be ee ec b7 bb
       -0.050327856 0.006401528 -0.21159649 -0.005612961
000070 42 91 33 be cf 18 01 3e b1 33 9f bc 49 a4 12 be
       -0.1753588 0.1260712 -0.019433828 -0.14320482
000080 fb 97 b0 3e 28 c3 ba bc 14 4a 1f 3e 6c 3d 80 bd
       0.34490952 -0.022798136 0.15555602 -0.06261715
000090 31 8a 66 be c5 e1 84 be 0c e0 09 be 0c 1a f7 be
       -0.22513653 -0.25953498 -0.13464373 -0.4826206
0000a0 52 b1 df bd 37 e5 d1 3e 62 0b 70 3e 79 78 0c be
       -0.10922493 0.4099519 0.23441842 -0.13717832
0000b0 0a 03 0f be 26 78 95 be 18 74 ed bd 76 9f 92 be
       -0.13966003 -0.29193228 -0.11594409 -0.28637284
0000c0 44 4a 86 be a6 30 e9 bd ac 86 fd bd 38 61 79 be
       -0.26228535 -0.11386232 -0.12379202 -0.24353492
0000d0 5b 34 8c 3d 27 b0 2d be df 50 4d bd 61 56 28 bf
       0.068459235 -0.16961728 -0.050125953 -0.65756804
0000e0 04 67 99 be 37 d6 67 be d7 fe 9d be df f7 a9 be
       -0.29961407 -0.2264031 -0.3085849 -0.33196923
0000f0 95 9a 4f be 14 4f d0 3d 1a 25 ee bd 6b 6b 28 38
       -0.20273812 0.10171333 -0.1162817 4.0154362e-05
000100 40 ed 40 3e 94 3a 01 bf 3b 71 17 3f 2f 21 e1 bd
       0.18840504 -0.5048001 0.5915715 -0.109926574
000110 e6 1f b4 be e5 55 2b bf 05 56 1c be 7f 87 5c be
       -0.35180587 -0.6692794 -0.15267189 -0.21536063
000120 f3 23 19 bf 8c 9a 37 3f e3 ce b4 3e 5d 83 a3 bd
       -0.5982048 0.71720195 0.35314092 -0.0798404
000130 cb 4f 92 be ef 3c 05 bf 5d 8e 27 bf c3 e7 1a bf
       -0.28576502 -0.520461 -0.65451604 -0.6050989
000140 2e ce 8a 3c 8c c6 29 bf 8c 82 a0 bf bb 8b d9 be
       0.016944017 -0.66318583 -1.253984 -0.42489418
000150 cb 0d 3a 3d 25 1c 31 be 5b fb 55 bd 03 51 7f bf
       0.04542331 -0.17295893 -0.052241664 -0.9973299
000160 c1 61 e7 bd 58 ac ac bd a6 64 d8 be ea aa d5 be
       -0.11297942 -0.084313095 -0.4226429 -0.4173196
000170 a2 61 15 bf 8e f8 c3 3d 42 d8 ea be 2b c0 94 3d
       -0.583521 0.095688924 -0.45868117 0.07263216
000180 7f f9 b9 be cc 72 19 bd 27 8c 0a 40 81 16 37 be
       -0.36323163 -0.037462994 2.1648042 -0.17879678
000190 2b 90 10 3d a7 d0 89 bf 22 77 e8 be a6 6c e3 be
       0.03529374 -1.0766801 -0.4540339 -0.4441883
0001a0 39 f3 33 bf 7b 28 63 3f 95 4e 4b 3f 9e 32 61 bd
       -0.70293003 0.88733643 0.7941678 -0.054979913
0001b0 50 4e 89 3e 25 74 cc be c6 2c c1 bb 57 cf 11 3e
       0.2681756 -0.3993236 -0.00589523 0.1423925
0001c0 f7 7a e8 bd 16 3e 72 be 5b 40 04 3f e1 87 16 be
       -0.11351579 -0.23656496 0.516607 -0.14700271
0001d0 53 96 42 3e 99 b1 81 3d 52 47 9a bd d7 52 20 3f
       0.19002657 0.06332702 -0.075331345 0.62626404
0001e0 83 31 ad bd 89 10 ea 3f 50 a3 27 3d db b3 a8 be
       -0.08456709 1.8286296 0.04092723 -0.3294972
0001f0 84 69 34 bc ea ae 2a bf 03 00 c1 bd 1d c2 a2 3f
       -0.011011485 -0.6667315 -0.0942383 1.2715489
000200 e6 35 90 bf ae 1d 18 bf d5 bb d1 bf e0 a3 01 bf
       -1.1266448 -0.5942029 -1.6385447 -0.5064068
000210 90 85 cd be f3 0a 01 bf d4 4c c2 be e6 22 1d bf
       -0.40140963 -0.5040733 -0.3794924 -0.61381376
000220 f1 cf 22 be 33 82 13 bf eb 90 72 bf 36 bd 19 3c
       -0.15899636 -0.57620543 -0.9475238 0.00938349
000230 3d 23 da 3e 9a 34 ba be 5c da a9 bd d0 61 16 be
       0.4260501 -0.36368257 -0.08293602 -0.1468575
000240 7f f0 74 be 1b 3a f1 3d fe 70 8f 3e 59 42 88 be
       -0.23919867 0.11778661 0.28015894 -0.2661312
000250 b1 12 93 bb 7f f3 89 bd b3 96 86 3d a8 2b 49 bd
       -0.004488312 -0.06735896 0.06571712 -0.0491139
000260 bb fd 3a be d8 ca 9b 3d cd ff d9 bd d4 ef 1a be
       -0.18260853 0.07607049 -0.10644493 -0.1513055
000270 ea b8 bd bd 9f a5 98 be e8 b8 20 be 2a b4 ba bd
       -0.09263785 -0.2981386 -0.15695536 -0.09116395
000280 23 1d 0f be da ed 1e be a9 4e f4 be e2 16 af bd
       -0.13975959 -0.1552042 -0.47716263 -0.085492864
000290 86 6f 47 be 15 8e b0 bd 09 6a 4d bd 5e 6b 1f 3c
       -0.19476137 -0.0862085 -0.05014995 0.009730188
0002a0 0d 61 95 be 00 62 9c bf b5 0e b4 be c4 05 35 bd
       -0.29175606 -1.2217407 -0.3516747 -0.04419495
0002b0 85 1c 83 3d f8 c5 a7 3d 3f ce 7b bd af da 8f be
       0.06401924 0.081920564 -0.06147599 -0.2809653
0002c0 44 ae 0f 3c 24 cb bd 3c c3 5f 98 3d 33 86 91 bd
       0.0087695755 0.023168154 0.0744014 -0.071056746
0002d0 b3 93 43 be d3 d5 54 be 26 14 3b be e2 53 58 be
       -0.19099312 -0.20784692 -0.18269405 -0.21125749
0002e0 f8 17 a9 be 9b ba 14 3e cc 60 13 bf 79 25 dc bd
       -0.330261 0.1452431 -0.57569575 -0.10749335
0002f0 5f e4 85 bd 76 ad ce bd 73 3e 7b bd cb ac 60 3c
       -0.06537699 -0.10091679 -0.061338853 0.013713072
000300 f5 c9 1f bd 3d 23 1d be c7 47 13 bf fe 78 aa 3d
       -0.03901096 -0.15345474 -0.575314 0.08323859
000310 2d 6a 35 be cd 5f 5b bd 2a ed d4 bd 2b 92 ac be
       -0.17716284 -0.05355816 -0.10396798 -0.33705267
000320 fb c1 56 3c c7 85 86 3e 2b 21 cc 3d f6 49 17 3e
       0.013107772 0.2627394 0.09967264 0.14774308
000330 1c fc bc bd 61 e8 55 3d 73 df ad bc f5 fb 98 be
       -0.092277735 0.052223567 -0.021224713 -0.29879728
000340 fb 96 76 bd e3 66 06 be 8e 68 cc be 2d a0 03 be
       -0.06020258 -0.13125186 -0.3992352 -0.12854071
000350 95 f3 13 3d 8c 4f 9d bd 53 dc 23 3d a7 dc c8 be
       0.03612097 -0.07681188 0.04000504 -0.39230844
000360 7f c5 85 bd 44 a7 c5 bd 8d cf 94 be 92 45 84 be
       -0.0653181 -0.09651044 -0.290646 -0.25834328
000370 ed 21 29 bd db 89 f5 bd 2f 4b ae bc ea 5d f2 3d
       -0.04129212 -0.119891845 -0.021276085 0.11834319
000380 4c 2d b4 3d c1 a9 e4 bd 84 74 90 be 0e 27 e3 bc
       0.08797702 -0.111651905 -0.28213894 -0.027728584
000390 68 f8 ac bd 5b 8c 70 be e9 d2 55 be 4d e4 a3 3c
       -0.08445817 -0.23491041 -0.20881237 0.020006323
0003a0 f0 d2 7d bd 64 29 49 3e 6e 49 0e 3d d0 31 27 3e
       -0.061968744 0.19644696 0.034737997 0.16327596
0003b0 84 c3 0f 3e 80 92 5f 3e 4c 90 15 be 03 f0 84 be
       0.14039427 0.21833229 -0.14605826 -0.25964364
0003c0 3c 23 7a be 5e 9d aa bc 02 a1 fb bc b2 ef 45 bc
       -0.24427503 -0.020826992 -0.030716423 -0.012081074
0003d0 6e 13 3a be ee a3 8d be 17 a7 93 bb 5f 29 2b be
       -0.18171474 -0.2766413 -0.0045060026 -0.16715
0003e0 e2 e6 9d be 05 a4 b0 3d de 17 8e be 77 de 51 be
       -0.30840212 0.08625034 -0.27752584 -0.2049502
0003f0 e8 1d 11 bd d8 85 8c bc 32 5f 0c be 96 4e ed 3d
       -0.03542891 -0.017153665 -0.13708189 0.11587255

2.bias f4 [64]
000000 2f 49 d5 3f 15 34 9c 40 62 6c 98 3f bd fa 98 40
       1.6662959 4.8813577 1.1908076 4.7806077
000010 f7 5f 18 c0 be 95 b0 3f c5 ce 86 bf c0 64 d4 be
       -2.3808572 1.3795698 -1.0531851 -0.41483116
000020 9a c1 2d bd b0 0b 9b 41 19 7f 4a c0 07 f3 41 bf
       -0.04242096 19.380707 -3.1640074 -0.75761455
000030 fd ee 12 41 6c 89 b5 bd dc 35 3f 40 07 90 0e 40
       9.183347 -0.08864102 2.9876623 2.2275407
000040 10 4f 06 c0 49 2b 32 40 35 ab 0f c1 0c 8b a1 be
       -2.0985756 2.783892 -8.979299 -0.31551397
000050 4b 61 87 3f 57 8a 4b 3f 40 54 68 be 89 ea e7 bf
       1.0576566 0.79507965 -0.22688389 -1.811845
000060 46 9c b9 c0 15 09 14 41 a8 7d 91 bf 9b 16 a5 bf
       -5.8003263 9.252217 -1.1366472 -1.2897524
000070 df 55 2a bf a1 b1 82 3e c9 f8 56 c0 36 da bf be
       -0.6653728 0.25526145 -3.3589346 -0.3747117
000080 83 30 3a 41 28 c9 9e 3e b2 ad 3d 41 db 06 d3 40
       11.636844 0.31012845 11.854906 6.594587
000090 01 22 a9 c0 c5 cd 2c be c0 0b 5e be 61 6b 6b 3e
       -5.285401 -0.1687537 -0.2168417 0.2299018
0000a0 0b 94 1e c0 48 c4 58 41 34 dc 9b be 5b 29 1f 3f
       -2.4777858 13.54792 -0.3044144 0.6217248
0000b0 66 62 12 bd 21 9f bf bf 4a bb 9d c0 49 cb 0d c1
       -0.03573837 -1.4970437 -4.9291124 -8.86213
0000c0 f3 c7 03 3f 93 f1 0e c1 34 94 74 be 59 13 2f be
       0.51476973 -8.933978 -0.2388466 -0.17097224
0000d0 2a db 06 c1 98 ee 72 40 b8 40 1f 41 c1 2f 0e c0
       -8.428507 3.7958126 9.9533 -2.2216647
0000e0 53 a4 0d 40 01 d4 8d bf 3d e2 43 c0 c0 6e d6 3d
       2.2131546 -1.1080323 -3.0606835 0.10470343
0000f0 df 0d 7d 41 10 6f 68 40 6b 8e 24 40 78 c1 96 be
       15.8158865 3.6317787 2.5711925 -0.2944448

4.weight f4 [32, 64]
000000 cb d7 d2 3d 49 7e ab 3d 80 24 f9 bd ac 29 21 c0
       0.102950655 0.08373696 -0.12165165 -2.5181684
000010 9b 24 a7 bd f2 3d 00 bd d4 3f b6 3d 74 31 3a bc
       -0.08161279 -0.031309076 0.08898893 -0.01136433
000020 92 ad fe 3b a2 89 4a be 95 32 cd 3d f6 d6 8c 3d
       0.007772156 -0.19779065 0.100194134 0.06876938
000030 b4 7b 2f be 23 6e f5 3c 8c ef 4d bd 35 a1 a5 bf
       -0.17137033 0.029959744 -0.050277278 -1.2939821
000040 52 47 e6 3b 1d a8 19 3e 87 0f 43 3c db 91 ec bb
       0.007027545 0.15005536 0.0119055575 -0.0072195358
000050 67 84 83 3e 2b 3b 09 3f 50 3e d8 bc bb 61 0c be
       0.25686952 0.5360591 -0.0263969 -0.13709156
000060 65 e0 be bd 87 28 3c bd bf 87 1d bb fb 67 88 bb
       -0.093201436 -0.045937087 -0.002403721 -0.004162786
000070 6b b4 16 be ea 16 90 3d c9 90 30 bb a5 5b 0f 3e
       -0.14717261 0.070356205 -0.0026941767 0.13999803
000080 1c a7 b3 3c 4d 92 cf bc c1 f4 3d be ef 15 ca bf
       0.02193027 -0.025338316 -0.18550397 -1.5787944
000090 fc ee 88 3d 37 f3 1a be 9e 2d 13 be 60 fd a0 3c
       0.06686208 -0.15131842 -0.1437287 0.019652069
0000a0 4c 48 bd bd 8f 6a 12 be 4c 07 ed 3d 90 39 34 be
       -0.09242305 -0.14298461 0.115736574 -0.17600083
0000b0 06 8b 47 3c 68 cb bc be 95 42 9e 3c ac 3c 02 bc
       0.012179142 -0.36873937 0.019318858 -0.007949036
0000c0 98 c7 8a 3d 20 4b aa bd 50 5a 74 3d 4a 87 9e bc
       0.06776351 -0.0831511 0.05965644 -0.01935162
0000d0 40 5f b7 3e 47 d9 f2 bc 94 e3 32 3e eb 42 1d be
       0.35814857 -0.029644622 0.17469627 -0.15357558
0000e0 7b a9 96 3d e7 a5 b0 bd 41 1e b7 3d 9d 16 dc 3d
       0.073565446 -0.08625393 0.08941317 0.10746501
0000f0 8a 1d b1 3e bc f5 54 be 7f b5 b2 3c cc da ca 3d
       0.3459285 -0.20796865 0.02181506 0.099050134
000100 e8 bc 00 be af d8 fa bd 1e 42 e8 bc 14 c2 8c 3d
       -0.12572062 -0.1224836 -0.02835184 0.06872955
000110 31 37 7f be 5d 86 0a bd 70 49 af 3c 80 fb 9f bd
       -0.24923398 -0.033819545 0.021397322 -0.07811642
000120 a2 99 95 3d 9b bc fc bd 0d a6 87 3d f4 e3 b7 3d
       0.07304694 -0.12340661 0.066234685 0.089790255
000130 90 b6 2b be 7a 8a f9 bc 4b a2 8c 3d 41 03 23 3e
       -0.16768861 -0.030461539 0.068668924 0.1591921
000140 3d a6 0e 3d a7 8f 9a bd 0c 47 d8 3a 32 64 cb 3d
       0.034826506 -0.07546931 0.0016500666 0.0993122
000150 a8 bb 53 3d 7b c0 28 3e 28 49 ac 3d 97 23 00 bc
       0.051692635 0.16479675 0.08412391 -0.007820985
000160 7d fd 10 bd 88 02 56 bd e3 4d 06 bc b1 22 f1 bc
       -0.035397995 -0.052248508 -0.008197281 -0.029435487
000170 29 70 8d 3b c5 c9 e8 3d 78 5d db 3d a8 41 85 3d
       0.004316349 0.113666095 0.10711187 0.065066636
000180 d4 4c 6f 3b 95 ab ce 3b 2c 9a b7 be cc 01 51 3e
       0.00365143 0.0063070753 -0.3585981 0.20410842
000190 37 ec 04 be 7d 9e f5 bc ba 24 0b bd ba bd 10 3d
       -0.12980734 -0.0299828 -0.033970572 0.035337187
0001a0 14 a7 66 bd 0e b2 be bc 05 77 5c bc 9d 46 85 bd
       -0.056311682 -0.023278262 -0.013456111 -0.06507609
0001b0 d0 23 c7 bc 63 93 77 be f6 6f 1e bd f6 3b ee bd
       -0.024309069 -0.24177317 -0.038680993 -0.116325304
0001c0 31 8c 9a bd 6a 49 7c 3c 66 00 0d bb fc 51 08 3d
       -0.07546271 0.015398363 -0.002151513 0.03328131
0001d0 27 b3 69 ba 03 1e 22 bc ef 1c 90 bd be ad 9b 3c
       -0.00089149404 -0.009894851 -0.07036769 0.019003745
0001e0 af 9b 9e 3e 94 3e 80 bc 1f fe 67 3d 56 c5 1b be
       0.30978152 -0.01565484 0.056638833 -0.15211996
0001f0 87 c1 d1 3d 89 12 94 3d 2b 44 bc 3e 04 03 90 bc
       0.102419905 0.07230098 0.36770758 -0.017579563
000200 3a a7 25 bd 5d 5a 99 3d c9 91 e7 bd 91 de 47 bd
       -0.040442683 0.074879386 -0.11307103 -0.04879624
000210 6d e0 7e bd 08 f4 e9 3c 90 ce c0 bd 70 31 4d bc
       -0.062225748 0.028558746 -0.09414399 -0.012523994
000220 ea cc e3 bd 0b 5f 4d be fe 4c 1e bd f2 a4 51 3d
       -0.11123069 -0.20055787 -0.038647644 0.051182695
000230 d1 fe e0 bc f4 9b 29 3d b6 77 e5 bc b2 ce 73 bd
       -0.027465256 0.041408494 -0.028011184 -0.059523292
000240 4f 9f 2e bd 4f 0d b5 bd 44 f2 2e be a6 50 bb bd
       -0.042632397 -0.08840429 -0.17084605 -0.09146242
000250 07 ae f4 bd 2c 5e ab bd 74 8c a9 3d 87 6e 3b be
       -0.119472556 -0.08367571 0.082787424 -0.18303882
000260 90 15 a7 bd 96 96 89 3c a0 eb 6d bc 12 a9 cf 3c
       -0.081584096 0.016795438 -0.014521509 0.025349174
000270 26 e3 ef 3d a8 1d 40 bd 2d cc 9c 3d 0d e0 07 3c
       0.11713247 -0.046903282 0.07656131 0.008293164
000280 e4 26 53 bd ab e8 b6 bd cc 01 b0 bd 7f 68 98 bd
       -0.05155076 -0.08931097 -0.08594093 -0.07441806
000290 0d 22 f0 bd f0 5f 35 bd b8 50 ec 3d c2 ce 91 3d
       -0.11725245 -0.044280946 0.115388334 0.07119514
0002a0 56 92 be bd 10 09 d2 3c e7 a4 36 3d aa fa 0c be
       -0.09305255 0.025639087 0.044590857 -0.13767496
0002b0 34 bd 12 be e6 14 d1 bd 12 1f 8e bd 1c b2 ec bd
       -0.14329988 -0.10209064 -0.0693952 -0.11557409
0002c0 c0 27 80 3c d9 87 c7 3d 90 4c b9 bc 88 03 f2 bd
       0.015643954 0.09742708 -0.022619516 -0.1181708
0002d0 a0 a0 5c bd a7 77 b6 bd 1d 34 55 be 33 e7 f6 bc
       -0.05386412 -0.089095406 -0.20820661 -0.030139541
0002e0 6d e7 25 3e 96 af cb 3c 50 b0 6f bd b0 e8 e7 bd
       0.16201563 0.024864 -0.058517754 -0.113236785
0002f0 df 9f 9f be 2d 07 89 bd e2 33 30 be fc f3 06 3d
       -0.3117666 -0.06690822 -0.17207292 0.032947525
000300 11 0f e9 3c 03 cb dd bd 34 fd 46 3c 5e bf 28 be
       0.028449567 -0.10829737 0.012145329 -0.16479251
000310 65 d9 a2 bd 18 f7 c6 bd eb 73 e0 3d 30 d4 00 3e
       -0.07951621 -0.09715098 0.109596096 0.12580943
000320 d6 09 8e 3d 03 af fd 3c fd 15 d1 bb e8 4e 64 3c
       0.0693547 0.030967241 -0.006380795 0.013934828
000330 51 87 08 3d 1e 8b 92 3c f0 63 41 3e 61 54 00 bf
       0.033332173 0.017888602 0.1888578 -0.5012875
000340 6a 90 83 3d ef 72 1b 3d a9 0c b5 bd 76 bb b0 3d
       0.06424029 0.037951406 -0.08840305 0.08629505
000350 f9 e6 00 bf 9e 5c a8 bd e1 df 5e bd 68 2a de bd
       -0.50352436 -0.0822079 -0.054412726 -0.10847932
000360 07 2a d2 3d 11 ca 26 3d 9f 8f a6 3c 8b b0 83 3c
       0.10261922 0.04072005 0.020332156 0.016075393
000370 92 46 f2 3c b1 dc 8f bd 1e d0 99 bd 14 92 db 3d
       0.029574666 -0.070245154 -0.07510398 0.107212216
000380 bd e3 e5 3e f8 89 90 bd e9 87 1e bf e0 1b 81 3e
       0.44900313 -0.070575655 -0.6192613 0.2521658
000390 f7 34 dc 3d 5a eb ff bd e8 9d 10 3e b6 76 6b be
       0.1075229 -0.124960616 0.14122736 -0.22994503
0003a0 a4 d0 10 be b0 d4 24 3f ad 08 38 3c bd f6 94 3e
       -0.1414209 0.64387035 0.011232537 0.29094496
0003b0 34 9f f7 bb fe 6c fa bd 2c 0a 27 3d b5 d0 f8 3c
       -0.0075568203 -0.1222782 0.040781185 0.030372957
0003c0 db b5 9f bd 85 3e 81 bd 9a 61 a4 bd a8 ac 9d 3d
       -0.07798358 -0.06310753 -0.080264285 0.07698947
0003d0 89 e3 56 3e 61 be 62 3d 71 40 57 bf 45 b8 e4 bd
       0.20985235 0.05535734 -0.84082705 -0.11167959
0003e0 4b b3 ed bd 3c 01 e5 bc bb 27 1b be 0f 4d 59 3e
       -0.11606463 -0.02795469 -0.15151875 0.21220802
0003f0 fc 20 11 3e 6f 79 5d bf 63 e8 ef 3e a5 bd 90 bc
       0.14172739 -0.8651342 0.46856984 -0.017668555

4.bias f4 [32]
000000 50 54 3f 3f d0 90 fd 40 bb 6e a8 bf a6 ac 1e bf
       0.74738026 7.9239273 -1.3158792 -0.6198219
000010 7b 7c c7 be cd 5d 56 41 a0 02 28 c0 bd 5a 1a bf
       -0.3896216 13.397901 -2.6251602 -0.60294706
000020 9d de 86 41 36 2b 2a c1 99 c3 00 c0 c9 c8 97 c0
       16.858698 -10.63555 -2.0119383 -4.74326
000030 3b ef 61 41 8f b6 0c c0 a3 a0 e3 40 2e f2 c7 bf
       14.120906 -2.1986425 7.113359 -1.5620782
000040 9a 66 63 40 03 2c 10 41 ac f0 33 40 b3 f1 b3 3f
       3.5531373 9.010745 2.8115644 1.4058136
000050 bc 3d e2 3f 3e c3 1a c0 4f 64 2b c1 24 37 b3 40
       1.767509 -2.4181666 -10.711989 5.600481
000060 57 9b 48 41 6c 7f a0 c0 98 13 b8 40 c3 71 62 be
       12.537925 -5.0155544 5.752392 -0.22113709
000070 01 f5 24 40 36 01 60 c1 fd 42 d8 be 14 7f 79 be
       2.5774539 -14.000296 -0.42238608 -0.24364883

6.weight f4 [1, 32]
000000 46 1e 35 3d 4c a1 8d be db 1c 23 3d e6 4d 0b bc
       0.044218324 -0.27662122 0.03982244 -0.008502459
000010 9a eb 5f 3d 00 cd 06 3e f1 bd 47 3d e0 6c b5 38
       0.054668047 0.13164139 0.048765127 8.651032e-05
000020 68 5e 6d 3f a5 14 bc bd 16 41 69 be 46 80 c3 3d
       0.9272218 -0.09183625 -0.22778735 0.095459506
000030 98 4c 23 be f1 83 60 ba 8e d5 ff 3d dc d7 56 3d
       -0.15947187 -0.00085645827 0.12491904 0.052451953
000040 b3 05 09 3e f0 a4 4c bd eb e4 dd 3e eb 7f 6b bd
       0.1338108 -0.049961984 0.43338713 -0.05749504
000050 96 7b 35 bd 2e e2 82 3e 47 20 48 3e 9e b7 16 3e
       -0.044307314 0.25563186 0.19543563 0.14718482
000060 a0 c5 6c 3d ee 5c 1c 3d de 79 ae bd 3c 0a a3 bd
       0.057805657 0.038174562 -0.08519338 -0.079609364
000070 91 17 49 3e e5 1e 22 be 5e 9c bb 3c 65 a7 e2 3b
       0.19637896 -0.15832098 0.02290171 0.0069169276
