April 4th Test/model.pth (torch, 20072 bytes, 7 tensors)

0.weight f4 [32, 3]
000000 7d 7c b1 3e 9e 70 1a c0 62 5e 09 bd ef 14 c3 bf
       0.3466529 -2.4131236 -0.033537276 -1.5240763
000010 60 b7 c9 3f 31 c5 ad bd 3f 71 a9 3f 08 4d 81 3e
       1.5759087 -0.08484877 1.3237685 0.25254083
000020 83 0c 4a bd c2 93 a1 bf 9c e7 cc c0 59 75 1e bd
       -0.04932834 -1.2623217 -6.4032726 -0.03868613
000030 05 a9 46 3c 0f 07 12 bf 43 3a 70 be ad 8a 84 3d
       0.012125258 -0.5704202 -0.23459725 0.06471763
000040 07 4d b4 be 28 cc c6 be a1 01 be bf 21 1b 1b 40
       -0.35215017 -0.38827634 -1.4844247 2.4235308
000050 f5 3d 0c 3c 23 49 1f c0 97 26 34 c0 cb b5 0e be
       0.008559694 -2.488839 -2.8148553 -0.13936536
000060 68 13 02 c0 c9 4a ea 3f e3 2a 00 bd 4a a6 15 c0
       -2.0324345 1.8304073 -0.0312909 -2.3382745
000070 8f 6f 98 c0 92 83 93 bc ec 3f 82 bd 39 91 6f be
       -4.763618 -0.018007074 -0.063598484 -0.23395242
000080 d5 e0 e2 be e2 89 89 3f 88 8e df 3f 77 11 33 bc
       -0.44312158 1.0745203 1.7465372 -0.010929457
000090 ea b2 a7 40 be d3 c3 3f 60 88 a3 bc a2 55 83 3e
       5.24059 1.5298994 -0.01996249 0.2565127
0000a0 6f 7f 1e 3f 0a 90 0b bd 8f 25 c7 3d c1 1e 77 bf
       0.619132 -0.034072913 0.097239606 -0.965313
0000b0 73 1e 59 bf 84 c1 e6 3d 96 08 1c 41 21 8d 2c be
       -0.84812087 0.11267379 9.752096 -0.16850711
0000c0 cf 5f b1 3e f8 b8 81 40 2e db d5 bc 55 fd a3 3e
       0.3464341 4.053829 -0.02610549 0.32029215
0000d0 f8 cc b2 40 62 73 d1 bd 28 b8 9e bf 10 e0 a9 41
       5.5875206 -0.10227086 -1.239995 21.234406
0000e0 19 9d 14 ba 84 93 27 3e 8a b7 c2 bf 95 dd 92 bd
       -0.00056691613 0.16364866 -1.5212262 -0.0717117
0000f0 4d e3 33 bf b3 3f 83 c0 e2 ec 0a bd 33 ae 7f bb
       -0.7026871 -4.101526 -0.033917315 -0.0039013743
000100 dc b6 fd be 43 99 cd be e0 cf 09 3f 8c ab 95 40
       -0.49553573 -0.40155992 0.5383282 4.677191
000110 a2 b3 9d bb bb 13 83 be c1 3a 21 bf 8b af db be
       -0.0048126737 -0.2560099 -0.62980276 -0.42907366
000120 86 57 e2 c0 b8 9c 0b 40 b9 8d 80 bc 45 d8 fe 3f
       -7.073184 2.1814404 -0.015692579 1.990975
000130 04 cd 45 3f 79 09 87 bc d4 d7 60 bf db 30 94 3d
       0.77265954 -0.01648401 -0.8782933 0.07235881
000140 bc 05 c8 be 73 34 fa 3e 02 ee 03 41 c2 77 5e bc
       -0.39066875 0.4886814 8.245607 -0.013578357
000150 ba be 84 42 7f 46 30 42 33 32 97 b8 0f 3e 7d c2
       66.37251 44.068844 -7.2095914e-05 -63.310604
000160 25 5f 2a 42 3a d7 ea b8 5b ce 64 bc 46 bf 17 bf
       42.592915 -0.000111980786 -0.013965215 -0.59276235
000170 86 c5 55 bf a0 ae 56 c0 ff c5 44 c0 41 e9 43 bf
       -0.8350452 -3.3544083 -3.0745847 -0.7652779

0.bias f4 [32]
000000 22 f5 1e 40 78 9a 5d c0 ad ef fe 40 e7 2d 73 c0
       2.4837117 -3.462553 7.9667573 -3.7996767
000010 36 f1 42 be 23 98 30 bf 32 e6 d0 c0 4f a9 9d c0
       -0.19037327 -0.6898214 -6.5281 -4.9269176
000020 85 80 82 bf ba 6e cf 3f e0 74 3c bf c9 80 4f 41
       -1.0195471 1.6205666 -0.7361584 12.968942
000030 75 d3 6c c0 b6 52 60 41 f1 df 27 bf fc bc c1 40
       -3.7004063 14.020193 -0.6557608 6.0543194
000040 d1 2b 53 41 f0 c3 b5 bf 9c 93 99 c1 5f 32 3a 40
       13.198197 -1.420042 -19.197075 2.9093244
000050 cb 46 56 40 aa 8c ee be 32 b0 9f 41 c8 25 2c bf
       3.3480709 -0.46591693 19.961033 -0.6724515
000060 e0 f6 6e c0 c8 c8 a0 bf 6c 9f b2 3e c4 6a 89 40
       -3.733818 -1.2561274 0.34887254 4.294283
000070 12 e8 f0 3f 77 cc 22 40 56 0a b7 3e d1 55 30 c0
       1.8820822 2.5437295 0.35750073 -2.7552378

2.weight f4 [64, 32]
000000 14 08 cb bd 60 f2 89 bd 81 00 4b bd 1c 06 46 bd
       -0.0991365 -0.067356825 -0.049561027 -0.04834567
000010 1b 7c 1e 3c 50 d9 e8 3d 41 ce 3b bd d1 aa ed 3d
       0.009673144 0.11369574 -0.045850996 0.11604846
000020 86 96 8c bd d9 e3 17 3e 37 cd 35 bd 94 f4 57 bc
       -0.068646476 0.1483301 -0.04438516 -0.013180871
000030 38 3e b4 bd 61 44 40 be af 97 2a 3e 26 98 c3 3c
       -0.0880093 -0.18776084 0.16659425 0.023876261
000040 6f 35 3f be 6b 45 44 be 63 eb dc bd b9 00 b0 bd
       -0.18672727 -0.19167106 -0.10787084 -0.08593888
000050 35 d0 1e 3e 88 1c 49 3c fe 34 51 3d fc 6d 2b 3d
       0.15509112 0.012274869 0.051075928 0.041852936
000060 fc 2c 77 bd 4b a3 ba 3c a2 9f 03 bd 0c fb 31 be
       -0.060345635 0.022782942 -0.03213466 -0.17380923
000070 c7 d6 0d be 8c 46 14 bf bd 61 cf bd ab 6f 29 be
       -0.13851462 -0.57920146 -0.10126064 -0.16546504
000080 b9 07 80 bd ca 0b 33 3e 03 49 f8 3d 6a 13 1b be
       -0.06251473 0.17484966 0.12123301 -0.15144125
000090 93 ce 0d bd ec d5 1d 3e 4c 4f 16 bd da bd f7 3d
       -0.034620833 0.15413636 -0.036696717 0.12096758
0000a0 84 d2 16 3e 15 3a b1 bd 8a f6 e9 bd 4d b9 f9 bc
       0.14728743 -0.086536564 -0.11423977 -0.030483866
0000b0 29 8f 6d bc 05 7c a6 bc 05 e5 f7 bc 91 db f3 3d
       -0.014499464 -0.020322809 -0.030260572 0.11907113
0000c0 58 ad cb bd ff e0 2c bd 1c 68 ea bd 16 6d 2e bd
       -0.09945172 -0.04220676 -0.114456385 -0.0425845
0000d0 d4 ba 29 be 2f e7 38 3d 11 74 27 be a8 b8 2a 3d
       -0.16575176 0.04514235 -0.1635287 0.04168001
0000e0 81 c5 37 3e 11 ee d8 3d c6 bf 99 bd cb 67 d2 bd
       0.17946436 0.105922826 -0.07507281 -0.10273703
0000f0 74 04 9e be c5 9b 9e be 3e 27 03 be 6c 3b 9f 3c
       -0.30862772 -0.30978218 -0.12807938 0.019437514
000100 96 b8 e6 3e ce ca d2 bd ad 61 f2 bd e2 a7 02 be
       0.45062703 -0.10292588 -0.118350364 -0.12759355
000110 4b 7d 2a 3e 05 9a e3 bd ca 9b c5 bc 2d 68 17 3d
       0.16649358 -0.11113361 -0.024122138 0.036964584
000120 af b6 ee 3d 3f 7a 56 3e f1 9a 67 bd 1e 06 09 3f
       0.11655938 0.2094507 -0.056544248 0.5352496
000130 24 ad b2 3e 85 e1 bd 3e 3d 11 0c bd 26 b8 9b bd
       0.3489772 0.3708612 -0.034196127 -0.07603483
000140 e8 e7 08 3f b5 29 fd 3d 7d e2 59 be 47 2d 7c 3f
       0.5347886 0.123614706 -0.21277805 0.9850659
000150 b0 49 a9 bd 95 0a 29 bd 34 e9 53 3e 10 e0 88 3e
       -0.08266008 -0.041269857 0.20694429 0.26733446
000160 5b 64 9e 3e 1d 42 2d be 43 3d fb 3c f9 b8 21 3d
       0.3093594 -0.16919751 0.03066886 0.039483044
000170 95 a6 5f bc ae 55 50 bc 88 f6 98 3e ed 38 e8 bd
       -0.013650556 -0.01271574 0.29875588 -0.11338983
000180 28 29 0c bf 9f 36 f6 be fc d3 8b bf 73 c7 5e bf
       -0.547503 -0.48088548 -1.0924067 -0.87023085
000190 ba 44 a5 bd 69 c1 f5 bb cf d8 9c bf 1a ea 59 bf
       -0.08069749 -0.007499863 -1.2253665 -0.85122836
0001a0 ec ba b2 bd 62 28 3f be 91 96 ae bd 5f d5 a5 bf
       -0.08727059 -0.18667749 -0.08524812 -1.2955741
0001b0 46 1b 21 bf de ef 3d bf ea 01 0a 3d c4 ce 56 bf
       -0.6293224 -0.74194133 0.03369323 -0.8390925
0001c0 95 6f a9 bf ed 67 77 bf 0c 9a 6a bf ff c1 aa be
       -1.3237177 -0.96642953 -0.91641307 -0.33351132
0001d0 dc 4d 45 bf e5 23 94 3d 06 9e d4 bf e2 fe 03 be
       -0.7707193 0.07233409 -1.6610725 -0.12890199
0001e0 e9 b8 73 bf 11 fc d2 bc f6 20 71 bd 62 ba 96 bf
       -0.95204026 -0.02575496 -0.058869325 -1.177563
0001f0 09 9f 30 bd dd c8 94 3c d8 00 87 3d 7e 08 85 bf
       -0.043120418 0.018162185 0.06591958 -1.0393217
000200 94 e7 14 3d cd 76 56 3e 35 e7 8f 3d ba 26 78 3d
       0.036353663 0.20943756 0.07026521 0.060583808
000210 d1 8b 35 3e 45 f3 d1 bd d2 3a 5d ba b3 7d 4d 3d
       0.17729117 -0.10251478 -0.0008439246 0.050168704
000220 0f 53 b9 3d 4d 30 ba bb 18 61 32 3d b7 bb 90 bd
       0.09049045 -0.0056820274 0.043549627 -0.07067054
000230 7c 70 97 3e 34 0b a9 bc a1 e1 f1 3d 72 3d 2e bd
       0.29578006 -0.020635225 0.118106134 -0.042539068
000240 5c 34 dc 3c 29 33 3f 3e eb 77 8e bc 04 47 7e 3e
       0.026880436 0.1867186 -0.017391166 0.24831778
000250 93 c8 15 3e 41 3a e8 3d de dc a0 bd 42 33 1f 3d
       0.14627294 0.11339236 -0.07854627 0.038867243
000260 98 4a 08 3d 3a 44 61 bc a0 4e 96 3c 6e b4 1a be
       0.033274263 -0.013749177 0.018348038 -0.15107891
000270 ac 5b 4e bf 07 35 65 bf a1 e1 1b 3d 7e 18 45 be
       -0.8060863 -0.8953404 0.038056973 -0.19247624
000280 49 73 c8 bd de 08 ab 3d 53 8a 60 be c5 e6 25 bd
       -0.09787614 0.08351301 -0.21927767 -0.040503282
000290 1a fb 23 be 83 8a 62 3d 03 9b 6e bd 8b f0 62 38
       -0.16013756 0.055307876 -0.0582533 5.4106622e-05
0002a0 a5 bb 0d 3c 84 ad e8 bd e5 2e 84 bc a0 43 88 3d
       0.008650695 -0.113612205 -0.016135642 0.066535234
0002b0 f3 01 02 be a5 63 84 bd 4a a7 d4 3d 9c bd 78 be
       -0.12696056 -0.06464318 0.1038347 -0.2429108
0002c0 88 ff 17 bd e3 18 cd 3c b1 34 36 3d ea 8f ee 3d
       -0.037108928 0.025036281 0.044483844 0.11648543
0002d0 4e fb 2d 3e 7d 4a f4 3d 4d a5 fb bd 76 97 94 3d
       0.16990396 0.1192827 -0.12287388 0.072554514
0002e0 1d 91 e8 bd 39 8f 95 bd 14 be 86 3d b9 62 28 be
       -0.11355803 -0.07302708 0.06579223 -0.1644391
0002f0 43 10 e9 be e0 90 2b bf 19 b7 92 3d fe 37 41 bd
       -0.4552022 -0.67017937 0.07163829 -0.04717254
000300 c4 c5 35 3e 38 d9 1b 3f 8d 0d 13 3d 46 4d c6 bc
       0.17751223 0.60878325 0.035901595 -0.024206769
000310 1b 6e 8a 3d 30 e2 1d be 5e a9 99 3c f1 f7 00 3d
       0.06759282 -0.15418315 0.018757518 0.031486455
000320 c7 e4 96 3e 70 18 8f bd 37 9f 7e 3d bb df 28 be
       0.29471418 -0.06987083 0.062163558 -0.16491596
000330 b0 d4 53 be 2f 05 1d bf 94 7e f5 3d f1 20 a0 be
       -0.20686603 -0.61336035 0.119870335 -0.31275132
000340 eb 31 cb bd e1 96 3f be e6 2b b3 38 39 33 94 3d
       -0.099216305 -0.187099 8.543562e-05 0.072363324
000350 a5 9a 34 3c 2f f9 b6 3c 67 f5 95 bd e5 28 eb 3c
       0.011023198 0.022335617 -0.073221974 0.028706023
000360 20 14 b7 3d 7c f2 ae bd d2 08 fe 3e 73 77 30 bd
       0.089393854 -0.08542344 0.49616104 -0.043082666
000370 c0 ef c4 be c4 ac 1b bf fe 73 08 3e c7 a7 cd be
       -0.38464165 -0.60810494 0.13325498 -0.40167066
000380 f0 a0 d9 be 79 17 8b be cb 82 55 bf 41 ce d5 be
       -0.42505598 -0.27166346 -0.834027 -0.41758922
000390 df 7e 8b 3d b7 51 a0 3d 52 49 ca bd 9c 3d e5 be
       0.06811308 0.07828086 -0.09877266 -0.44773567
0003a0 cd f4 b1 3e d1 ed 57 be e7 49 5f 3d a8 18 c0 be
       0.3475708 -0.21086814 0.05451384 -0.3751881
0003b0 9f 46 56 bf 6a b1 e4 be 76 01 22 3e 38 9b 3d 3d
       -0.8370151 -0.44666606 0.1582087 0.046290606
0003c0 1a 29 0c be 6a ed 36 3f 13 3b 0f be fe 41 82 be
       -0.13687554 0.71456015 -0.13987379 -0.25440973
0003d0 5d 80 31 bf 50 a2 37 3c 14 05 28 bf 0f ac 89 3b
       -0.6933649 0.011208132 -0.6563275 0.004201419
0003e0 c9 47 e0 be d6 95 c7 be be f2 a7 bd fe fe 78 be
       -0.43804768 -0.38981503 -0.08200596 -0.24316022
0003f0 1b cc 18 3d 68 72 5a 3d 48 66 42 bc 0b 4a 12 bf
       0.037304025 0.053331763 -0.011865206 -0.5714423

2.bias f4 [64]
000000 29 a3 35 c0 f0 93 4f 3d e9 3b bf 40 48 82 88 40
       -2.8380835 0.050678194 5.9760633 4.2659035
000010 81 e5 40 c0 8f ff 30 c0 d0 57 be 40 3f 06 01 41
       -3.0140078 -2.765598 5.9482193 8.064025
000020 77 b1 d5 3f c2 1c 61 be d9 0a 1f 3d 11 b0 66 3e
       1.6694783 -0.21983626 0.038828705 0.22528102
000030 e7 8a 16 c0 0a 33 06 40 93 5e bb 3e 94 1a ba 3f
       -2.352228 2.0968652 0.36595592 1.4539361
000040 ef 21 5c bf 9a b3 f7 3e 0e 19 3b be 89 c0 30 3e
       -0.8598928 0.48379213 -0.18271276 0.17260946
000050 d7 e9 9b c0 b6 f0 24 c0 7c b1 18 41 7a 3e 7f be
       -4.872295 -2.5771918 9.543331 -0.24926177
000060 99 a4 00 be 79 ad a1 bf bd e4 96 40 5e a9 99 3e
       -0.12562789 -1.2631065 4.715422 0.3001203
000070 ff ff 18 3f bc 61 64 bf 57 55 7d 3d ad 11 b1 3e
       0.5976562 -0.8921163 0.061848965 0.34583798
000080 ac df 83 c0 55 2d 82 be 66 0f 39 c0 83 e2 e2 3f
       -4.1210537 -0.2542521 -2.8915648 1.7725376
000090 1f ea 83 be 0d f2 f7 ba 08 f9 03 41 8d 85 02 3f
       -0.25764558 -0.0018916741 8.248299 0.5098503
0000a0 3f 2d 37 40 0f 9c 83 be 40 bb 22 be fa 14 9d c0
       2.8621366 -0.25705 -0.15891743 -4.9088106
0000b0 fa 8e 89 be 7a a3 a2 40 60 f3 09 40 d9 17 7d bf
       -0.26866895 5.0824556 2.1554794 -0.98864514
0000c0 0b 15 aa 40 63 57 ba 3f f8 49 ee bf 7b e3 01 41
       5.3150687 1.4557918 -1.8616323 8.118037
0000d0 c6 48 9e 3d c3 46 18 bf 2c 0d d1 be 0b 77 98 c0
       0.07728724 -0.59482974 -0.40830362 -4.7645316
0000e0 82 c5 e0 bf 60 8c af bf 08 24 6f bf 18 00 a8 40
       -1.7560275 -1.3714714 -0.93414354 5.2500114
0000f0 f8 28 54 be 7f 9f 2e be 7c d7 ef bd ad c1 83 41
       -0.20718753 -0.1705303 -0.11711022 16.469568

4.weight f4 [32, 64]
000000 cf f8 c1 3d 38 bc 89 3d 4f bb 1f 3e 8b 11 3d be
       0.094712846 0.06725353 0.15598796 -0.18463723
000010 22 1c d3 bd 8b 71 34 3d 75 8f 36 bd 0b 00 74 3c
       -0.103081 0.044053596 -0.044570405 0.014892588
000020 e1 0e 5d 3d 35 0c b0 3d 8c 2c 77 bd d5 28 e6 3d
       0.053969268 0.08596078 -0.060345218 0.11238257
000030 77 28 09 3e 87 2b d3 bc 81 65 aa 3d a1 73 c8 bd
       0.13394342 -0.025777591 0.083201416 -0.097876795
000040 9e e8 3e 3e a4 4b 03 3d af 8a 7c 3d b8 66 39 bd
       0.18643424 0.03205456 0.061655696 -0.045263976
000050 0c cd b3 3d 41 8a df bc 27 2f a3 bd 83 f3 ac bb
       0.08779344 -0.027287604 -0.07967978 -0.0052780523
000060 04 e6 08 bd 6c 29 31 3b 4f 14 1a be 88 f4 ad 3d
       -0.033422485 0.0027032746 -0.1504681 0.08493906
000070 d5 49 40 bb 65 e5 a2 bd d4 27 56 3d 72 74 e6 bd
       -0.0029340882 -0.0795391 0.052284077 -0.11252679
000080 a1 cb 85 3d a4 8a 79 3d 11 40 f4 3d 8b 7b d0 bd
       0.0653298 0.060923234 0.11926282 -0.10179814
000090 75 ff ba 3d d7 db 33 3d b0 97 41 3d 9a 36 09 3e
       0.09130756 0.043910827 0.0472638 0.13399735
0000a0 af c2 d6 3c 50 aa 92 3d ca bd 8c 3d c0 99 1a 3c
       0.02621588 0.07161391 0.06872137 0.009436071
0000b0 6a 3f 8d 3d 3d e7 e6 3c c2 1f 2d bc 15 ba 7f 3c
       0.06896861 0.028186435 -0.010566654 0.01560833
0000c0 7e 40 3e 3e 13 b4 01 be f0 64 b5 bd da 7f ea bd
       0.1857929 -0.12666349 -0.08857143 -0.11450167
0000d0 72 ad e9 3c b3 78 2f 3e 41 e9 f3 3b 8f 14 7d bd
       0.028525088 0.17135887 0.0074435775 -0.061787184
0000e0 10 7f 53 be df a9 19 be c8 4f ff bc 41 7b 91 bb
       -0.20653939 -0.15006207 -0.031165972 -0.004439742
0000f0 63 f4 ca bc b6 2a ba bd 9e ea 93 bd 42 67 5e be
       -0.024774736 -0.09090178 -0.07222484 -0.21719077
000100 80 ca 5e 3d 2d ff 9b 3d 19 a7 5d 3e 6d eb 62 3c
       0.054392338 0.0761703 0.21645774 0.013850075
000110 1d 8a b2 3d 52 a4 e5 bc 2a f0 b5 3c cf 34 b7 3d
       0.08717749 -0.028032456 0.022209246 0.08945619
000120 20 62 12 bf de 9a b3 3c 8e 88 fb 3c 73 b8 92 3d
       -0.57180977 0.021924432 0.030704763 0.07164087
000130 cc b0 8c bd 34 cb ee bd 2e 39 cc 3d fe f4 e9 bd
       -0.06869659 -0.11659852 0.09971844 -0.11423682
000140 24 3f 60 3d 5e af 02 be 83 e9 e4 3c cc 1a e1 3d
       0.054747716 -0.1276221 0.027943378 0.10991439
000150 ba b7 fb bd 1e 69 ac 3d cf c7 33 be 4c c6 2d 3d
       -0.122909024 0.08418487 -0.1755669 0.04242544
000160 7d d5 a9 bd ab 6c 45 3c 6f ac 91 3d 85 c8 12 be
       -0.08292673 0.012049834 0.07112967 -0.14334305
000170 24 00 0d bd d2 d9 4e be 9b 32 04 3e 48 f9 d5 bd
       -0.034423962 -0.2020028 0.1290993 -0.10447937
000180 de 3c b1 bd 1a ed 1f 3d 86 71 94 3d 98 f2 70 3e
       -0.086541876 0.039044477 0.072482154 0.23530042
000190 fb 90 ac 3d 1b d5 76 3d 71 9a d2 3d 21 1e a8 bd
       0.0842609 0.060261827 0.102833636 -0.08208872
0001a0 09 17 d1 3d ff 8d b5 3d 7d 44 20 bd 8d 4d 25 3d
       0.10209472 0.08864974 -0.039127816 0.04035716
0001b0 02 25 da bd 0d c1 ab 3e 56 93 f1 3d 7b 33 82 bc
       -0.1065159 0.33545724 0.1179568 -0.015893688
0001c0 86 d8 80 bd 31 e0 13 3e 95 94 96 3d a0 76 15 bf
       -0.062912986 0.14440991 0.073525585 -0.5838413
0001d0 fd ad 01 bd 23 16 fb 3c 4a 86 9a 3b 89 36 ca bd
       -0.03166007 0.030650204 0.0047157155 -0.09873683
0001e0 81 7d 92 3e 6a de 7b 3d 3c 83 3b be b9 94 94 3d
       0.28611377 0.061491407 -0.1831178 0.07254929
0001f0 38 1a 82 bb 08 11 d0 bd 30 45 ac bd 3d 31 2f be
       -0.0039704107 -0.101594985 -0.08411634 -0.17108627
000200 58 dc aa 3c c0 d7 c8 bc b0 81 c8 3d d4 01 b6 bd
       0.020857021 -0.02451694 0.09790361 -0.088870674
000210 5d c1 17 3d 8c e2 69 3d c6 53 3f bf ad 6b f8 bd
       0.03704964 0.057100818 -0.74737203 -0.121299125
000220 ad 2e 96 3c fc ce 3f bd 88 c6 d4 3c 90 14 df bd
       0.018332804 -0.046828255 0.025973573 -0.10892594
000230 45 9f 84 bd bb 29 02 3d 60 87 35 3d d4 db b0 bb
       -0.06475691 0.03177808 0.044318557 -0.0053972993
000240 76 76 bd bd 80 20 77 3d 9b 5e 01 be f2 90 b2 3d
       -0.0925111 0.06033373 -0.12633745 0.087190524
000250 19 ce d3 3d 00 b0 05 ba 88 82 eb bc 80 5e d2 bc
       0.103420444 -0.00050997734 -0.028748766 -0.025679827
000260 e0 be d6 bd 42 ae cd 3d 46 d8 e1 bd c0 60 ea 3d
       -0.10485625 0.10043003 -0.11027579 0.11444235
000270 ec 40 35 bc 05 4d d0 3d 0a d7 b5 bd ca bd 95 3d
       -0.011062842 0.1017094 -0.08878906 0.0731159
000280 3f ce 14 3d f0 92 12 3c c0 a7 44 bd 82 ee e9 bd
       0.036329504 0.008946165 -0.04801154 -0.11422445
000290 d6 33 8a bd 3d b6 ab bd 86 25 39 bd 4e 1c 3e 3c
       -0.06748168 -0.083843686 -0.0452018 0.011603428
0002a0 a6 a2 94 ba 63 3e 8a 3d b7 0f 6f 3d 0b 03 e2 bc
       -0.0011339977 0.067501806 0.058364596 -0.027589342
0002b0 d7 48 08 be 30 17 cc bd 60 9a b7 bd 31 ae c9 3d
       -0.13309036 -0.0996536 -0.089649916 0.098476775
0002c0 b2 b2 20 be 21 40 f6 bd 7c a3 f8 bc e7 68 8b be
       -0.15693167 -0.1202395 -0.030351393 -0.27228472
0002d0 53 d0 26 bc 50 10 79 bd 1a 64 cd 3d 45 4c 40 bd
       -0.010181504 -0.060806572 0.100288585 -0.046947736
0002e0 3b 65 9b 3c 15 2f 30 bc d0 03 36 3d fe 3c 90 3c
       0.018969169 -0.010753413 0.04443723 0.017607208
0002f0 90 c2 f4 bd b6 cb ab bd ac 9b b7 bd 9d f8 9c bd
       -0.11951172 -0.08388464 -0.08965239 -0.07664607
000300 00 b3 a5 3c 34 92 fb bc a6 76 04 bf ef e9 bf bc
       0.020226955 -0.030709364 -0.51743543 -0.023426978
000310 5e 4c c0 3d b3 16 13 bd da 9b 32 3e 95 fe 1c 3d
       0.09389566 -0.03591032 0.17442265 0.038328726
000320 52 e8 87 bc 80 f9 43 bd 10 42 8e bd 88 a9 95 3d
       -0.016590271 -0.047845364 -0.06946194 0.07307726
000330 6e c7 b0 bc 65 86 57 be 80 dd a3 bd a7 3e 0c 3b
       -0.02157947 -0.21047361 -0.08001232 0.0021399648
000340 2b ae 71 3c 9f 2e e6 3d 5a 37 26 be 3c 84 b3 3d
       0.014750998 0.11239361 -0.16232052 0.08765456
000350 8b 1e ea 3c a8 5e 52 bd ef 02 71 3e ff 32 41 bd
       0.028579017 -0.051359802 0.23536275 -0.047167774
000360 c1 f9 90 bd 3f 04 20 bd 8e b3 a9 bc 94 19 0e 3e
       -0.07078887 -0.03906655 -0.020715501 0.13876945
000370 4c 87 3d bc cd 8f 1e bd 7d 51 9f bd 12 6c a5 bb
       -0.011567902 -0.038711358 -0.077792145 -0.0050482834
000380 9e ef 82 3c f2 78 66 3d 95 5e 0b bd 64 2f 33 3b
       0.015983399 0.056267686 -0.034025747 0.002734148
000390 2a b0 24 3e f2 9e a9 bd ab 67 2b bc c7 c9 f8 3d
       0.16082826 -0.082822695 -0.010461728 0.12147861
0003a0 58 99 9b 39 fb d3 e5 bc 8c f7 62 bd cb 4b 07 bd
       0.00029678154 -0.028055182 -0.05541186 -0.033031266
0003b0 04 f7 0d bd e1 61 80 3c 22 32 a4 bd 29 22 dc bc
       -0.0346594 0.015671672 -0.080173746 -0.026871758
0003c0 fb fc 8c 3d 19 31 d1 bd 05 4c ca 3d a5 1e b7 ba
       0.0688419 -0.10214443 0.09877781 -0.0013970925
0003d0 3f 49 86 bd 98 49 3c 3d 00 a7 8c 3d 5e 64 ca 3d
       -0.06556939 0.045968622 0.0686779 0.09882425
0003e0 68 11 bb bd 45 85 67 bb 03 97 33 3d 3c dc 44 bd
       -0.09134179 -0.0035327238 0.043845188 -0.048061594
0003f0 0e 14 d2 3d 21 c8 7f 3c 3b ba 7c bd 2f 95 44 3e
       0.102577314 0.015611679 -0.06170104 0.19197534

4.bias f4 [32]
000000 ef 17 82 bf 3f b8 c1 c0 b9 b1 d0 3f 97 20 83 41
       -1.0163554 -6.053741 1.6304237 16.390913
000010 e6 12 3e 40 c1 6b 7d be 16 e2 da 40 9c 44 1d bd
       2.9699035 -0.24748136 6.8400984 -0.03839551
000020 f5 b8 86 41 70 70 51 41 51 a2 25 41 34 39 17 bf
       16.840311 13.089951 10.352128 -0.5907166
000030 15 a2 7c 41 6c 0e 5a bf 5c 8b c5 c0 37 93 28 c1
       15.789571 -0.85178256 -6.1732616 -10.535941
000040 28 19 1d 41 8d 44 49 3f bf a5 78 c1 5a 2f f3 c0
       9.818642 0.78620225 -15.540465 -7.59953
000050 83 13 7a bf 02 66 f5 bf bc 68 4a c1 76 be 54 41
       -0.9768602 -1.9171755 -12.65057 13.296499
000060 b1 1a ed c0 f4 df a6 be fd e5 c5 3e 1a 9d 11 40
       -7.409508 -0.32592738 0.3865203 2.2752137
000070 2b 24 99 3f 65 bd de 3d a0 3c a5 bf e6 9f ab 3f
       1.1964163 0.10875968 -1.2909126 1.3408172

6.weight f4 [1, 32]
000000 a0 57 31 ba 5a e0 cd 3d ed 3d 65 3f 0f 97 ff 3e
       -0.00067650713 0.10052557 0.89547616 0.49919936
000010 06 2e 2e 3d 93 83 ae 3c ba ae 76 3d dc 4a b5 bc
       0.04252436 0.021302974 0.060225226 -0.022130422
000020 ff de 1a 3f 52 3e 77 3e 85 4f a6 be 02 6a f3 3b
       0.60496515 0.24144867 -0.32482544 0.0074284086
000030 fd 09 a6 3d 76 9c a0 3b 62 fb 07 be b6 79 1a bd
       0.08107374 0.004901464 -0.13279489 -0.03771373
000040 03 07 19 3f 17 f9 cf be e7 47 b8 be dc d1 90 3d
       0.59776324 -0.40619728 -0.35992357 0.070712775
000050 35 6a bc bc c9 1a 79 bc 3b bb 4a be 67 d6 e2 3d
       -0.022999862 -0.01520414 -0.19797985 0.1107605
000060 30 8b 8c 3b 1d 69 53 3c bd f9 3e bd 40 77 c9 3c
       0.0042890534 0.012903479 -0.046624888 0.024592996
000070 28 d0 0e bb c1 88 5d bc 8b fd ab 3c d8 60 90 3e
       -0.0021791551 -0.013521374 0.020994922 0.28198886
