Custom Test/model.pth (torch, 20465 bytes, 7 tensors)

0.weight f4 [32, 3]
1.4413996 1.479191 0.86473775 1.5303588 0.8734971 1.1165025 -1.2810814 -0.66092336
-0.49103743 0.57642174 1.501807 1.1080384 1.4265504 1.0781891 1.2783906 -1.0815158
-0.55492723 -0.9146618 -1.2695277 -0.8528299 -1.2660046 0.932291 0.765501 1.3829961
0.5442548 0.73383117 0.8369692 0.65284956 1.0544808 0.42975837 -0.47858882 -1.4904387
-0.55426896 -0.9039165 -1.1874658 -0.6432254 1.0899789 1.4664754 1.0631144 -1.1820737
-0.844865 -1.1565603 -0.75701606 -0.4845243 -0.6662557 0.7475972 1.3332818 1.1033022
1.2931972 0.64809865 0.42847478 -1.2230636 -1.4428369 -0.52626026 -0.8337023 -0.76084846
-0.81740457 0.9899548 1.4518361 0.5897835 1.0363507 0.60593235 1.1780257 0.801152
1.1768775 0.87969685 1.4788488 0.6578018 0.65566885 0.65564644 1.5192895 1.1924008
1.5555549 0.52352476 0.42733943 -1.4516901 -1.3883618 -0.7661443 -0.793263 -0.5202612
-1.2981567 0.60641134 1.306326 0.7666308 -0.6495906 -1.1370021 -0.66972756 -1.448581
-1.2913561 -0.82397807 1.1220549 0.85279703 1.3441397 1.3924866 0.58131754 0.6917697
00000000: c87f b83f 2156 bd3f 745f 5d3f cce2 c33f
00000010: 829d 5f3f 8ee9 8e3f 7afa a3bf 4632 29bf
00000020: 4269 fbbe 6090 133f 363b c03f 34d4 8d3f
00000030: 3499 b63f 1a02 8a3f 4ea2 a33f 1c6f 8abf
00000040: b60f 0ebf 4727 6abf e27f a2bf 0f53 5abf
00000050: 700c a2bf 9faa 6e3f e0f7 433f 0406 b13f
00000060: 4854 0b3f 5cdc 3b3f 9d43 563f 2621 273f
00000070: 3af9 863f 4a09 dc3e 9809 f5be b2c6 bebf
00000080: 92e4 0dbf 1267 67bf e1fe 97bf 6baa 24bf
00000090: 6e84 8b3f 77b5 bb3f 2214 883f 314e 97bf
000000a0: 1349 58bf 2b0a 94bf cecb 41bf 9213 f8be
000000b0: bc8f 2abf 8862 3f3f faa8 aa3f 0239 8d3f
000000c0: 7c87 a53f cbe9 253f 0c61 db3e 598d 9cbf
000000d0: e1ae b8bf feb8 06bf 846d 55bf f7c6 42bf
000000e0: 6d41 51bf ae6d 7d3f c4d5 b93f 0dfc 163f
000000f0: 24a7 843f 621e 1b3f 8cc9 963f 4c18 4d3f
00000100: eca3 963f d033 613f eb4a bd3f b365 283f
00000110: ead9 273f 72d8 273f 1478 c23f 97a0 983f
00000120: 6c1c c73f b805 063f 3ccc da3e fbd0 b9bf
00000130: d7b5 b1bf 0822 44bf 4913 4bbf d72f 05bf
00000140: 002a a6bf c63d 1b3f b135 a73f eb41 443f
00000150: 924b 26bf 4989 91bf 4473 2bbf 1a6b b9bf
00000160: 284b a5bf 3af0 52bf 7f9f 8f3f e850 5a3f
00000170: c50c ac3f 003d b23f 3ad1 143f d217 313f

0.bias f4 [32]
1.5286543 0.80518234 -1.204678 0.44134927 0.66936827 -0.8557754 -1.076205 0.5809088
1.0135417 0.60562015 -1.4898216 -1.3179247 0.49469537 -1.3676176 -0.42287463 1.1090465
1.1779153 -1.5384846 -1.3791871 0.80782485 1.09028 0.49196833 0.7512349 0.6543573
1.0015996 -1.2148303 -1.0400069 0.6087694 -1.3962895 -1.3368263 0.8023738 0.54430777
00000000: f2aa c33f 6e20 4e3f e432 9abf 88f8 e13e
00000010: b85b 2b3f 1914 5bbf 16c1 89bf 70b6 143f
00000020: bcbb 813f ec09 1b3f 79b2 bebf c2b1 a8bf
00000030: b648 fd3e 180e afbf 0683 d8be 3cf5 8d3f
00000040: eec5 963f 10ed c4bf 3489 b0bf 9ccd 4e3f
00000050: 4c8e 8b3f 46e3 fb3e ee50 403f f683 273f
00000060: 6a34 803f 8f7f 9bbf f21e 85bf 50d8 1b3f
00000070: 9db9 b2bf 201d abbf 5f68 4d3f c157 0b3f

2.weight f4 [64, 32]
-0.85177726 -1.0350791 -0.84789014 1.0550796 -1.1496854 -0.87766254 0.95135945 0.9322353
0.8532616 0.82425493 1.0505729 0.9613802 1.0688218 0.8549248 -0.8687553 -1.12976
0.9694708 1.0369222 1.0912582 1.1427124 -0.8389602 0.859829 1.0444875 0.92396224
0.9806254 0.86768305 1.1609801 0.8702539 1.0944724 1.0621253 -0.9425403 0.90442526
1.1606811 1.0388447 1.0227367 -1.1557848 1.0742055 0.973479 -1.0809851 -0.8481574
-0.9605872 -1.097806 -1.0894712 -1.0084403 -0.901294 -1.045172 0.89913523 0.93946266
-1.1320636 -0.93695515 -0.8631661 -1.166424 1.0410547 -0.90867823 -0.9679444 -1.0629536
-0.90773165 -0.9071009 1.0659968 -1.0310631 -1.0468075 -0.98108774 0.9687648 -1.0526792
1.1129941 1.1519042 0.9824661 -1.0395763 1.0025524 0.98943835 -0.95749533 -0.95045483
-1.1605537 -1.0652349 -0.851112 -0.9311192 -1.0087864 -1.106576 0.89184475 0.8416363
-1.0576069 -0.94029766 -0.88726956 -0.918377 0.84372365 -1.1063038 -1.0278925 -0.82898813
-0.97441846 -1.0457753 1.0727926 -1.0673279 -1.1143922 -0.8709693 0.9195612 -1.0354342
-1.1758572 -0.8816819 -0.8660551 1.0644246 -1.1232514 -1.1744655 0.85642356 1.13182
1.0848696 1.1487573 1.0926005 1.0447344 0.9982666 0.86555886 -1.1514564 -1.1653428
1.0723597 0.91320676 0.9644179 0.89826196 -1.032207 0.8755771 0.88448906 1.058636
0.94745904 1.1091301 -1.0563549 0.8703211 0.96879905 0.9143065 -1.0540621 0.831708
-0.90109384 -1.1230657 -0.9111335 1.080217 -0.8736936 -1.1355941 1.1271349 0.91642594
1.0655943 1.1660124 0.9750607 0.9986262 0.95929813 0.8523927 -0.91516334 -1.1754838
1.1097362 1.1322671 1.1671734 0.95829976 -1.1452409 1.0397434 1.0976539 0.82404983
0.9598706 0.8940283 -1.015081 0.91298676 0.9277282 0.9438792 -1.1679682 1.1450452
-0.8518018 -1.0277257 -1.0201224 0.92785287 -1.1596327 -1.1720273 1.0656991 0.90293956
0.88635296 0.98620653 0.9411259 0.9428043 1.0056783 0.96250236 -1.0608656 -1.084638
0.8561298 1.1482272 0.9292523 1.0468405 -1.061331 1.0143642 1.1648073 1.081443
0.8468027 1.0701618 -0.8320389 1.046506 1.1185077 1.1742808 -1.0270712 1.0366898
-1.1228642 -1.0364183 -0.86905766 1.0906216 -1.1118443 -1.1417502 0.87919366 0.825539
0.86358905 0.95628196 1.1192901 1.0295788 0.86553884 0.858183 -0.9120565 -1.1314852
0.9782232 1.0847982 0.9181768 0.98072064 -1.0153774 0.95817554 0.91036475 0.84240997
0.85709494 0.9053398 -0.8290108 0.91461235 0.8812719 1.0428474 -0.9512394 1.0968554
-0.8656238 -0.90152717 -1.1752142 1.0156723 -0.89286673 -1.016327 0.89581984 1.1685174
0.9338721 0.89934903 0.84059167 1.0078673 1.0783257 1.0391256 -0.96503854 -1.1340426
0.8348834 1.003106 1.1611687 1.101977 -1.1029009 0.9770476 0.86967313 0.91470736
1.0319978 1.0962534 1.146065 0.8376949 1.118149 0.87531453 -0.9337127 1.1495905
00000000: 130e 5abf 797d 84bf 540f 59bf d90c 873f
00000010: e428 93bf 7eae 60bf 4b8c 733f f9a6 6e3f
00000020: 5a6f 5a3f 5f02 533f 2c79 863f 031d 763f
00000030: 27cf 883f 5adc 5a3f bf66 5ebf fa9b 90bf
00000040: 3d2f 783f deb9 843f 59ae 8b3f 6644 923f
00000050: 18c6 56bf c11d 5c3f c4b1 853f ca88 6c3f
00000060: 440a 7b3f 7a20 5e3f ff9a 943f f6c8 5e3f
00000070: ac17 8c3f b9f3 873f 524a 71bf 6a88 673f
00000080: 3391 943f ddf8 843f 09e9 823f c2f0 93bf
00000090: 917f 893f eb35 793f b85d 8abf d820 59bf
000000a0: 0be9 75bf e884 8cbf cb73 8bbf 9214 81bf
000000b0: 34bb 66bf 32c8 85bf ba2d 663f a080 703f
000000c0: 76e7 90bf 4bdc 6fbf 74f8 5cbf 624d 95bf
000000d0: 4841 853f 239f 68bf 34cb 77bf dd0e 88bf
000000e0: 1a61 68bf c437 68bf 9572 883f e0f9 83bf
000000f0: cafd 85bf 9128 7bbf f800 783f 31be 86bf
00000100: 9776 8e3f 9971 933f e682 7b3f d610 85bf
00000110: a353 803f d54b 7d3f 6a1e 75bf 0251 73bf
00000120: 068d 94bf 9e59 88bf 7ae2 59bf d45d 6ebf
00000130: ea1f 81bf 48a4 8dbf f04f 643f 7a75 573f
00000140: aa5f 87bf 59b7 70bf 1924 63bf c11a 6bbf
00000150: 46fe 573f 5d9b 8dbf fb91 83bf 9138 54bf
00000160: 7d73 79bf f7db 85bf 4551 893f 339e 88bf
00000170: 67a4 8ebf d8f7 5ebf 5d68 6b3f 1c89 84bf
00000180: 7d82 96bf e8b5 61bf c9b5 5dbf 113f 883f
00000190: b4c6 8fbf e354 96bf 933e 5b3f 7adf 903f
000001a0: 02dd 8a3f 7b0a 933f 55da 8b3f dbb9 853f
000001b0: 668e 7f3f 4495 5d3f ec62 93bf f429 95bf
000001c0: 1543 893f ebc7 693f 17e4 763f 7ff4 653f
000001d0: 5c1f 84bf d225 603f e06d 623f 6281 873f
000001e0: ad8c 723f faf7 8d3f a336 87bf 5dcd 5e3f
000001f0: 3703 783f fe0f 6a3f 82eb 86bf d1ea 543f
00000200: 16ae 66bf 9ec0 8fbf 0c40 69bf 8d44 8a3f
00000210: 62aa 5fbf 265b 91bf f545 903f e49a 6a3f
00000220: 6565 883f e53f 953f 949d 793f f7a5 7f3f
00000230: 9094 753f 6836 5a3f 2548 6abf 4176 96bf
00000240: d60b 8e3f 21ee 903f f065 953f 2253 753f
00000250: 4197 92bf 5016 853f ec7f 8c3f eef4 523f
00000260: 14ba 753f 0adf 643f 2dee 81bf 80b9 693f
00000270: 987f 6d3f 11a2 713f fb7f 95bf d790 923f
00000280: af0f 5abf 848c 83bf 5f93 82bf c487 6d3f
00000290: d86e 94bf fe04 96bf d468 883f 0c27 673f
000002a0: 07e8 623f 0878 7c3f a1ed 703f 9f5b 713f
000002b0: 11ba 803f 8e66 763f 72ca 87bf 6bd5 8abf
000002c0: 532b 5b3f 1cf9 923f 7be3 6d3f dffe 853f
000002d0: b2d9 87bf b0d6 813f 6818 953f b96c 8a3f
000002e0: 10c8 583f 10fb 883f 8000 55bf e9f3 853f
000002f0: 432b 8f3f d54e 963f 1277 83bf 40b2 843f
00000300: 04ba 8fbf 5ba9 84bf 907a 5ebf 7d99 8b3f
00000310: ea50 8ebf df24 92bf d612 613f 8656 533f
00000320: 2c14 5d3f e5ce 743f e644 8f3f 3dc9 833f
00000330: f493 5d3f e2b1 5b3f 897c 69bf 82d4 90bf
00000340: d66c 7a3f abda 8a3f a20d 6b3f 8210 7b3f
00000350: e3f7 81bf fe4a 753f aa0d 693f 2ea8 573f
00000360: 936a 5b3f 59c4 673f 0d3a 54bf 0924 6a3f
00000370: 099b 613f 067c 853f 6d84 73bf c265 8c3f
00000380: 8599 5dbf 7cca 66bf 6b6d 96bf 8d01 823f
00000390: ea92 64bf 0117 82bf 7354 653f fa91 953f
000003a0: 3e12 6f3f bd3b 663f 0431 573f cc01 813f
000003b0: 9406 8a3f 1102 853f c40c 77bf 4f28 91bf
000003c0: ebba 553f c765 803f 2da1 943f 950d 8d3f
000003d0: db2b 8dbf cb1f 7a3f e6a2 5e3f 432a 6a3f
000003e0: 8118 843f 0852 8c3f 42b2 923f 2c73 563f
000003f0: 821f 8f3f 9d14 603f cc07 6fbf c825 933f

2.bias f4 [64]
-0.9154404 1.048267 0.93210065 -0.89232844 -1.0568033 -1.0058725 -1.0673352 -1.1676824
-0.97149646 1.0510807 -1.0889972 -0.8915557 0.84141964 0.8295898 0.890812 -1.0610944
0.9803659 -1.0341593 -0.91930366 -1.1551435 1.0260296 -0.9969376 -0.9533066 1.1757299
1.1087964 -1.0978706 -1.1448591 -1.0427976 0.91132367 -0.93825066 -0.9983789 -0.85781336
-0.9305601 0.9674953 -0.99392384 1.0423352 -1.021935 -0.85735077 0.86177456 1.0861598
-1.1126835 -1.1548704 -1.0362914 1.0861435 -0.87509596 1.0443592 0.9847209 0.98993677
-1.0716616 0.984136 0.98778534 -0.8495314 1.1034567 -1.1414605 1.0007303 0.89126956
0.97193736 0.8595032 -0.9540403 -1.1274676 1.1745163 -0.8664973 -1.1216854 -1.1664257
00000000: 4d5a 6abf 9d2d 863f 269e 6e3f a36f 64bf
00000010: 5545 87bf 6ec0 80bf 719e 88bf 9e76 95bf
00000020: feb3 78bf d089 863f 4364 8bbf ff3c 64bf
00000030: 4767 573f ff5f 543f 410c 643f f1d1 87bf
00000040: 42f9 7a3f 555f 84bf 7c57 6bbf bedb 93bf
00000050: f054 833f 4d37 7fbf e70b 74bf 517e 963f
00000060: 0aed 8d3f 0687 8cbf be8a 92bf 647a 85bf
00000070: 824c 693f 3231 70bf c295 7fbf a899 5bbf
00000080: 3039 6ebf c6ad 773f cb71 7ebf 3d6b 853f
00000090: c4ce 82bf 577b 5bbf 429d 5c3f 4907 8b3f
000000a0: 6a6c 8ebf cbd2 93bf 32a5 84bf c006 8b3f
000000b0: 4a06 60bf 90ad 853f ab16 7c3f 7f6c 7d3f
000000c0: 352c 89bf 56f0 7b3f 80df 7c3f e47a 59bf
000000d0: 123e 8d3f 611b 92bf ee17 803f 3e2a 643f
000000e0: e3d0 783f 6708 5c3f fc3b 74bf dc50 90bf
000000f0: 8d56 963f c4d2 5dbf 6393 8fbf 704d 95bf

4.weight f4 [32, 64]
1.0048769 0.9651042 -0.9614863 0.9153778 -0.9488305 -1.107967 0.93402725 0.9342785
1.060485 -1.0032709 -1.120126 -1.0713863 -1.0578462 0.8840194 1.0160005 1.0445405
-1.0229282 -1.0497422 0.9992369 -1.0992835 0.92388004 -1.0028486 -0.8889488 -1.0384357
-0.93804 0.9507901 -1.0332732 0.88100475 1.103559 1.1217104 -1.0026248 1.0794199
-0.897755 1.0620196 1.064376 -1.118998 -1.1174536 0.90405685 -0.9609003 0.8918767
-1.0954173 -1.0605869 0.88478667 -0.99982375 1.0180321 -1.0731485 1.0818428 0.9525433
-1.0351892 1.0952235 -0.89268047 0.9856591 -1.0897319 0.9372668 -0.9840816 -0.92670363
-0.9377681 -1.0551969 0.8818282 0.8906043 0.9602269 1.001559 -1.0561454 0.9011564
-0.986818 -1.0991852 0.85955787 -1.1014731 0.96609485 1.1103786 -0.95110863 -1.0146627
-0.9742491 1.0497415 1.0006812 0.8991113 0.92296934 -1.0848846 -1.0030805 -1.1143942
0.9771575 0.95427746 -0.8772393 1.1015686 -0.927261 1.0069692 0.9594567 1.0318328
0.91358674 -1.0530237 0.9748627 -1.0293299 -1.1183825 -0.9502087 1.1029246 -1.0689211
1.0336555 -1.0132257 -1.0045371 1.0072722 1.108227 -0.9832399 0.92088664 -1.0449445
1.0610538 1.0389909 -0.99752295 0.9833619 -1.0486072 0.95560616 -1.0658826 -0.97949976
1.0350758 -0.9040868 0.9717495 -0.9910363 1.0807365 -0.94518805 1.0160458 1.0380046
1.0064635 0.8927604 -0.99516547 -1.027281 -0.8871333 -0.88701105 1.0247719 -0.88817674
0.9356224 1.1086459 -0.8917119 0.99521893 -1.100313 -1.0403364 0.9665709 1.002061
0.88666797 -0.9768334 -1.0519853 -1.0320036 -1.0645611 0.97360736 0.8839072 0.9337283
-0.98848164 -0.91809005 1.1135913 -1.0945561 1.052487 -1.0704609 -1.096643 -1.005503
-1.0717046 0.89233744 -1.1168163 0.9163305 1.1027162 1.0697111 -1.0494806 0.9163343
-1.0961542 0.9261561 0.94856226 -0.92492604 -0.9590908 0.9518281 -0.9139454 0.9223455
-1.1018356 -0.9727183 0.93107367 -0.9644369 1.1059037 -1.0591124 0.9127721 1.0470495
-1.1128926 1.1115177 -1.0590316 1.0604321 -1.0993952 0.9153812 -0.9862304 -0.95556486
-0.9030751 -0.8954576 0.9928106 0.98392814 1.0206611 0.9709598 -0.9957443 0.8816168
0.8973862 1.0856564 -1.0723953 1.09843 -0.98628074 -0.9695507 1.1136086 0.93047
0.9802668 -0.97785246 -0.9572929 -1.1216491 -0.95557207 0.9262829 1.016415 1.0845674
-1.0124475 -1.0039537 0.9906571 -0.89568824 1.071036 -0.9789773 -1.0752239 -1.0678778
-0.9004289 1.0899165 -0.9276227 0.90253377 1.0973477 0.9880471 -0.907905 1.1085676
-0.986297 0.94793534 1.1175804 -1.0651394 -0.9183194 0.88013834 -1.0393128 0.8910174
-1.0560715 -0.946922 0.9104321 -1.1080949 1.0893782 -0.9332712 0.998631 0.9118791
-1.0331159 0.95952004 -0.9228008 0.95911366 -1.036 0.9113754 -1.0588729 -0.932303
-0.9194632 -0.98183846 0.9530996 1.1200597 1.0246699 0.9517443 -1.0433235 0.98250234
00000000: ce9f 803f 1211 773f f723 76bf 3356 6a3f
00000010: 8ee6 72bf ddd1 8dbf 691c 6f3f e02c 6f3f
00000020: f9bd 873f 2e6b 80bf 4a60 8fbf 3023 89bf
00000030: 8167 87bf 184f 623f 4e0c 823f 81b3 853f
00000040: 50ef 82bf f45d 86bf fdcd 7f3f 52b5 8cbf
00000050: 6783 6c3f 585d 80bf 2692 63bf 76eb 84bf
00000060: 6423 70bf fb66 733f 4c42 84bf 8789 613f
00000070: 6c41 8d3f 3594 8f3f 0256 80bf 6e2a 8a3f
00000080: 46d3 65bf 42f0 873f 793d 883f 543b 8fbf
00000090: b808 8fbf 4570 673f 90fd 75bf 0852 643f
000000a0: a236 8cbf 50c1 87bf 6181 623f 73f4 7fbf
000000b0: e04e 823f ee5c 89bf d379 8a3f e1d9 733f
000000c0: 1481 84bf 4930 8c3f b586 64bf 2854 7c3f
000000d0: 567c 8bbf b8f0 6f3f c6ec 7bbf 733c 6dbf
000000e0: 9211 70bf b110 87bf 7ebf 613f a5fe 633f
000000f0: 6ed1 753f 1633 803f c62f 87bf 30b2 663f
00000100: 1ba0 7cbf 1ab2 8cbf fc0b 5c3f 12fd 8cbf
00000110: fe51 773f e320 8e3f db7b 73bf 78e0 81bf
00000120: 6468 79bf ee5d 863f 5216 803f 282c 663f
00000130: b847 6c3f 80dd 8abf f164 80bf 78a4 8ebf
00000140: fe26 7a3f 874b 743f c192 60bf 3300 8d3f
00000150: fa60 6dbf 5ee4 803f f49e 753f 1913 843f
00000160: d2e0 693f 7bc9 86bf 9a90 793f 15c1 83bf
00000170: 2827 8fbf e140 73bf a22c 8d3f 68d2 88bf
00000180: d34e 843f 61b1 81bf ac94 80bf 4cee 803f
00000190: 62da 8d3f 9cb5 7bbf 3abf 6b3f bec0 85bf
000001a0: 9cd0 873f a7fd 843f aa5d 7fbf 9bbd 7b3f
000001b0: c338 86bf 9ba2 743f d76e 88bf 7fc0 7abf
000001c0: 5d7d 843f 3c72 67bf 93c4 783f 8eb4 7dbf
000001d0: 9355 8a3f d8f7 71bf ca0d 823f 56dd 843f
000001e0: ccd3 803f f28b 643f 2ac3 7ebf f27d 83bf
000001f0: 2b1b 63bf 2813 63bf ba2b 833f 8d5f 63bf
00000200: f384 6f3f 1ce8 8d3f 3b47 64bf abc6 7e3f
00000210: 0ed7 8cbf be29 85bf 3171 773f 8943 803f
00000220: acfc 623f c111 7abf 74a7 86bf b218 84bf
00000230: 8a43 88bf 553e 793f be47 623f d108 6f3f
00000240: 220d 7dbf f307 6bbf 298a 8e3f 6a1a 8cbf
00000250: e5b7 863f dd04 89bf cc5e 8cbf 53b4 80bf
00000260: 9e2d 89bf 3a70 643f d6f3 8ebf a394 6a3f
00000270: ce25 8d3f 4bec 883f 6155 86bf e294 6a3f
00000280: c84e 8cbf 9118 6d3f fad4 723f f4c7 6cbf
00000290: fa86 75bf 02ab 733f 53f8 69bf d61e 6c3f
000002a0: f308 8dbf 1104 79bf d85a 6e3f 56e5 76bf
000002b0: 418e 8d3f ff90 87bf 6fab 693f b805 863f
000002c0: 4473 8ebf 3646 8e3f 598e 87bf 3dbc 873f
000002d0: fbb8 8cbf 6c56 6a3f 9879 7cbf e69f 74bf
000002e0: ee2f 67bf b63c 65bf d628 7e3f b7e2 7b3f
000002f0: 06a5 823f d290 783f 19e9 7ebf a3b1 613f
00000300: 1abb 653f caf6 8a3f 4044 89bf 5b99 8c3f
00000310: e57c 7cbf 7a34 78bf ba8a 8e3f 4833 6e3f
00000320: c4f2 7a3f 8a54 7abf 2611 75bf 3392 8fbf
00000330: 5fa0 74bf e020 6d3f e319 823f 1bd3 8a3f
00000340: e197 81bf 8e81 80bf b49b 7d3f d34b 65bf
00000350: b517 893f 429e 7abf f0a0 89bf 38b0 88bf
00000360: 8282 66bf 6282 8b3f ae78 6dbf 740c 673f
00000370: e475 8c3f a8f0 7c3f 766c 68bf 8be5 8d3f
00000380: f67d 7cbf e4ab 723f e00c 8f3f 7d56 88bf
00000390: fb16 6bbf bf50 613f 3408 85bf b719 643f
000003a0: 5a2d 87bf 7b69 72bf 1412 693f 0ed6 8dbf
000003b0: bf70 8b3f ddea 6ebf 48a6 7f3f e970 693f
000003c0: 243d 84bf 1ba3 753f ac3c 6cbf 7988 753f
000003d0: a69b 84bf e64f 693f 2689 87bf 69ab 6ebf
000003e0: f161 6bbf c459 7bbf 56fe 733f 1e5e 8f3f
000003f0: 6228 833f 84a5 733f a08b 85bf 4685 7b3f

4.bias f4 [32]
1.029745 -0.9420506 0.95976114 1.0817463 -0.982027 0.9748908 -0.9759102 -1.0983927
1.0045959 1.0573264 0.88295126 -1.0663974 -0.9216844 1.0028346 -1.0042573 -0.98724365
-1.0561023 -0.8966344 -1.0123938 0.95448583 1.0657983 0.8959564 0.976943 1.0125912
0.9612069 1.0680315 -1.1067498 0.96396303 -1.0525371 1.1156664 -0.950114 0.906754
00000000: afce 833f 3a2a 71bf e8b2 753f aa76 8a3f
00000010: 1f66 7bbf 7292 793f 40d5 79bf 2298 8cbf
00000020: 9996 803f 7956 873f 1809 623f b67f 88bf
00000030: 82f3 6bbf e25c 803f 818b 80bf 00bc 7cbf
00000040: 5c2e 87bf d589 65bf 1f96 81bf 2f59 743f
00000050: 146c 883f 665d 653f f018 7a3f 979c 813f
00000060: a811 763f 42b5 883f faa9 8dbf 48c6 763f
00000070: 89b9 86bf 28ce 8e3f ac3a 73bf 0821 683f

6.weight f4 [1, 32]
1.0685121 -1.0037477 -0.8381733 -0.90244293 -1.1032335 1.1575757 0.9683823 -1.0402535
-0.9471384 -0.8243703 -0.9466612 0.8294344 0.94356835 -0.8353876 -1.0623051 -1.0850451
-1.1409062 0.9024167 0.9033478 -0.9577808 1.0706265 -0.83128846 1.1160128 -0.99738747
1.0953346 -0.8989562 -1.1524742 -0.9107991 0.87907237 1.1365098 0.92311037 -0.96332085
00000000: 01c5 883f ce7a 80bf 8692 56bf 8006 67bf
00000010: c136 8dbf 712b 943f e7e7 773f 0727 85bf
00000020: aa77 72bf ef09 53bf 6358 72bf d055 543f
00000030: b28d 713f f6db 55bf 9df9 87bf c2e2 8abf
00000040: 3709 92bf c804 673f cd41 673f 1f31 75bf
00000050: 4a0a 893f 52cf 54bf 82d9 8e3f c954 7fbf
00000060: ed33 8c3f fe21 66bf 4684 93bf 212a 69bf
00000070: e30a 613f 2779 913f f650 6c3f 329c 76bf
