May 15th Test/model.pth (torch, 20465 bytes, 7 tensors)

0.weight f4 [32, 3]
000000 02 80 b8 3f 98 56 bd 3f c6 5f 5d 3f da e2 c3 3f
       1.4414065 1.4792051 0.86474264 1.5303605
000010 ba 9d 5f 3f 9a e9 8e 3f 9e fa a3 bf d9 32 29 bf
       0.87350047 1.116504 -1.2810857 -0.6609321
000020 b6 69 fb be 8a 91 13 3f fd 3b c0 3f cb d4 8d 3f
       -0.4910409 0.5764395 1.5018307 1.1080564
000030 3c 99 b6 3f 28 02 8a 3f 54 a2 a3 3f 22 6f 8a bf
       1.4265513 1.0781908 1.2783914 -1.0815165
000040 d2 0f 0e bf 51 27 6a bf f7 7f a2 bf 5a 53 5a bf
       -0.5549289 -0.9146624 -1.2695302 -0.85283434
000050 80 0c a2 bf b6 aa 6e 3f 16 f8 43 3f 0e 06 b1 3f
       -1.2660065 0.93229234 0.76550424 1.3829973
000060 6c 54 0b 3f a8 dc 3b 3f b7 43 56 3f 82 21 27 3f
       0.5442569 0.7338357 0.83697075 0.65285504
000070 98 f9 86 3f ec 09 dc 3e b8 09 f5 be c2 c6 be bf
       1.054492 0.4297632 -0.47858977 -1.4904406
000080 a0 e4 0d bf 27 67 67 bf f6 fe 97 bf 7c aa 24 bf
       -0.5542698 -0.90391773 -1.1874683 -0.6432264
000090 7a 84 8b 3f 8b b5 bb 3f 2d 14 88 3f 6c 4e 97 bf
       1.0899804 1.4664778 1.0631157 -1.1820807
0000a0 bf 49 58 bf 57 0a 94 bf eb cb 41 bf 2a 14 f8 be
       -0.8448753 -1.1565655 -0.7570178 -0.48452884
0000b0 d4 8f 2a bf 9a 62 3f 3f 0c a9 aa 3f 0a 39 8d 3f
       -0.66625714 0.7475983 1.3332839 1.1033032
0000c0 88 87 a5 3f 04 ea 25 3f 34 61 db 3e 67 8d 9c bf
       1.2931986 0.64810205 0.42847598 -1.2230653
0000d0 02 af b8 bf 14 b9 06 bf af 6d 55 bf 4f c7 42 bf
       -1.4428408 -0.52626157 -0.8337049 -0.7608537
0000e0 8d 41 51 bf c9 6d 7d 3f dc d5 b9 3f 21 fc 16 3f
       -0.8174065 0.98995644 1.451839 0.5897847
0000f0 2e a7 84 3f 90 1e 1b 3f 98 c9 96 3f 88 19 4d 3f
       1.0363519 0.6059351 1.1780272 0.8011708
000100 f8 a4 96 3f ee 34 61 3f f1 4a bd 3f cd 65 28 3f
       1.1769094 0.8797139 1.4788495 0.65780336
000110 f4 d9 27 3f 96 d8 27 3f 34 78 c2 3f a6 a0 98 3f
       0.65566945 0.6556486 1.5192933 1.1924026
000120 74 1c c7 3f d5 05 06 3f 52 cc da 3e 3c d1 b9 bf
       1.5555558 0.5235265 0.4273401 -1.4516978
000130 58 b6 b1 bf 65 22 44 bf 65 13 4b bf 20 30 05 bf
       -1.3883772 -0.7661498 -0.7932647 -0.5202656
000140 0c 2a a6 bf ea 3d 1b 3f ce 35 a7 3f 06 42 44 3f
       -1.2981582 0.6064135 1.3063295 0.76663244
000150 af 4b 26 bf 66 89 91 bf 5e 73 2b bf 28 6b b9 bf
       -0.64959234 -1.1370056 -0.6697291 -1.4485826
000160 46 4b a5 bf 50 f0 52 bf 88 9f 8f 3f 12 51 5a 3f
       -1.2913597 -0.8239794 1.122056 0.85279953
000170 ce 0c ac 3f 0b 3d b2 3f 72 d1 14 3f e8 17 31 3f
       1.3441408 1.3924879 0.5813209 0.69177103

0.bias f4 [32]
000000 0d ab c3 3f 7c 20 4e 3f f5 32 9a bf ca f9 e1 3e
       1.5286576 0.8051832 -1.2046801 0.44135886
000010 bd 5b 2b 3f 1f 14 5b bf 20 c1 89 bf 7b b6 14 3f
       0.66936857 -0.8557758 -1.0762062 0.58090943
000020 c4 bb 81 3f 15 0a 1b 3f 7c b2 be bf c6 b1 a8 bf
       1.0135427 0.6056226 -1.4898219 -1.3179252
000030 ce 48 fd 3e 33 0e af bf 22 83 d8 be 40 f5 8d 3f
       0.49469608 -1.3676208 -0.42287546 1.1090469
000040 f4 c5 96 3f 18 ed c4 bf 3f 89 b0 bf a8 cd 4e 3f
       1.177916 -1.5384855 -1.3791884 0.80782557
000050 52 8e 8b 3f 70 e4 fb 3e f6 50 40 3f 0a 84 27 3f
       1.0902808 0.4919772 0.75123537 0.6543585
000060 6e 34 80 3f ad 7f 9b bf fb 1e 85 bf 5e d8 1b 3f
       1.0016 -1.2148339 -1.040008 0.60877025
000070 a5 b9 b2 bf 26 1d ab bf 68 68 4d 3f cb 57 0b 3f
       -1.3962904 -1.336827 0.80237436 0.54430836

2.weight f4 [64, 32]
000000 1f 0e 5a bf a0 7d 84 bf 19 10 59 bf e0 0c 87 3f
       -0.851778 -1.0350838 -0.8479019 1.0550804
000010 2c 29 93 bf 9a ae 60 bf 60 8c 73 3f 14 a7 6e 3f
       -1.149694 -0.8776642 0.9513607 0.9322369
000020 70 6f 5a 3f 6a 02 53 3f 54 79 86 3f 47 1d 76 3f
       0.8532629 0.8242556 1.0505776 0.96138424
000030 32 cf 88 3f 6a dc 5a 3f c7 66 5e bf 18 9c 90 bf
       1.0688231 0.85492575 -0.86875576 -1.1297636
000040 8a 2f 78 3f e6 b9 84 3f 73 ae 8b 3f 70 44 92 3f
       0.9694754 1.0369232 1.0912613 1.1427135
000050 50 c6 56 bf cd 1d 5c 3f d0 b1 85 3f e2 88 6c 3f
       -0.8389635 0.8598297 1.0444889 0.92396367
000060 71 0a 7b 3f 8e 20 5e 3f 43 9c 94 3f 00 c9 5e 3f
       0.9806281 0.86768425 1.1610187 0.8702545
000070 df 17 8c 3f c1 f3 87 3f 4d 4b 71 bf 7b 88 67 3f
       1.0944785 1.0621263 -0.94255525 0.9044263
000080 35 91 94 3f ee f8 84 3f 29 e9 82 3f c5 f0 93 bf
       1.1606814 1.0388467 1.0227405 -1.1557852
000090 ac 7f 89 3f f8 35 79 3f bc 5d 8a bf e4 20 59 bf
       1.0742087 0.97347975 -1.0809855 -0.8481581
0000a0 16 e9 75 bf eb 84 8c bf de 73 8b bf a1 14 81 bf
       -0.96058786 -1.0978063 -1.0894735 -1.008442
0000b0 40 bb 66 bf 35 c8 85 bf c0 2d 66 3f b8 80 70 3f
       -0.9012947 -1.0451723 0.8991356 0.9394641
0000c0 84 e7 90 bf 53 dc 6f bf 8e f8 5c bf 69 4d 95 bf
       -1.1320653 -0.93695563 -0.86316764 -1.1664249
0000d0 56 41 85 3f 29 9f 68 bf 40 cb 77 bf e4 0e 88 bf
       1.0410564 -0.9086786 -0.9679451 -1.0629544
0000e0 2c 61 68 bf ce 37 68 bf f6 13 6f bf e3 f9 83 bf
       -0.9077327 -0.9071015 -0.9338983 -1.0310634
0000f0 e4 fd 85 bf 99 28 7b bf 6a 01 78 3f 35 be 86 bf
       -1.0468106 -0.9810882 0.9687716 -1.0526797
000100 ae 76 8e 3f 2d 72 93 3f 16 85 7b 3f f2 10 85 bf
       1.1129968 1.1519219 0.9824995 -1.0395796
000110 86 54 80 3f 43 4c 7d 3f c5 1e 75 bf 6d 51 73 bf
       1.0025795 0.9894449 -0.95750076 -0.9504612
000120 2f 8d 94 bf b1 59 88 bf b9 e3 59 bf ea 5e 6e bf
       -1.1605586 -1.0652372 -0.851131 -0.9311358
000130 1c 20 81 bf 67 a4 8d bf 17 50 64 3f 54 76 57 3f
       -1.0087924 -1.1065797 0.8918471 0.8416493
000140 2d 60 87 bf 9d b7 70 bf 00 25 63 bf 1e 1b 6b bf
       -1.0576226 -0.9403017 -0.8872833 -0.9183825
000150 4c ff 57 3f 77 9b 8d bf 2b 92 83 bf 05 39 54 bf
       0.8437393 -1.1063069 -1.0278982 -0.82899505
000160 1b 74 79 bf 1d dc 85 bf 02 47 6d bf 4c 9e 88 bf
       -0.9744279 -1.0457798 -0.92686474 -1.0673308
000170 4e a5 8e bf 14 f8 5e bf 2c 6c 6b 3f 39 89 84 bf
       -1.1144197 -0.8709729 0.9196193 -1.0354377
000180 86 82 96 bf 56 b6 61 bf 9e b6 5d bf 1b 3f 88 3f
       -1.1758583 -0.8816885 -0.86606777 1.0644258
000190 0b c7 8f bf f6 54 96 bf b7 3e 5b 3f 8e df 90 3f
       -1.1232618 -1.1744678 0.8564257 1.1318223
0001a0 11 dd 8a 3f 83 0a 93 3f 94 da 8b 3f 11 ba 85 3f
       1.0848714 1.1487583 1.092608 1.0447408
0001b0 8c 8e 7f 3f 5a 95 5d 3f f4 62 93 bf 1d 2a 95 bf
       0.99826884 0.8655602 -1.1514573 -1.1653477
0001c0 46 43 89 3f 04 c8 69 3f 71 e4 76 3f a3 f4 65 3f
       1.0723655 0.91320825 0.96442324 0.8982641
0001d0 8d 1f 84 bf e7 25 60 3f 05 6e 62 3f 78 81 87 3f
       -1.0322129 0.87557834 0.88449126 1.0586386
0001e0 e7 8c 72 3f 09 f8 8d 3f 5b 7b 71 3f 72 cd 5e 3f
       0.9474625 1.1091319 0.9432885 0.87032235
0001f0 ea 03 78 3f 16 10 6a 3f 33 ec 86 bf e6 ea 54 3f
       0.9688097 0.91430795 -1.0540832 0.83170927
000200 2a ae 66 bf d8 c0 8f bf 0c 41 69 bf 98 44 8a 3f
       -0.90109503 -1.1230726 -0.9111488 1.0802183
000210 21 ab 5f bf 3c 5b 91 bf 08 46 90 3f 10 9b 6a 3f
       -0.87370497 -1.1355968 1.1271372 0.91642857
000220 76 65 88 3f ee 3f 95 3f 1b 9e 79 3f 6a a6 7f 3f
       1.0655963 1.1660135 0.97506875 0.998633
000230 b8 94 75 3f 82 36 5a 3f 36 48 6a bf 6f 76 96 bf
       0.9593005 0.8523942 -0.91516435 -1.1754893
000240 0e 0c 8e 3f 2e ee 90 3f 1d 66 95 3f 46 53 75 3f
       1.1097429 1.1322687 1.1671788 0.9583019
000250 75 97 92 bf 5a 16 85 3f 00 80 8c 3f 1b f5 52 3f
       -1.1452471 1.0397446 1.0976562 0.8240525
000260 56 ba 75 3f 28 df 64 3f b5 0a 7c 3f 95 b9 69 3f
       0.9598745 0.8940301 0.9845384 0.912988
000270 54 80 6d 3f 2a a2 71 3f bf 80 95 bf e2 90 92 3f
       0.9277394 0.9438807 -1.1679915 1.1450465
000280 ba 0f 5a bf af 8c 83 bf ac 93 82 bf d6 87 6d 3f
       -0.85180247 -1.0277308 -1.0201316 0.92785394
000290 19 6f 94 bf 0f 05 96 bf df 68 88 3f 2a 27 67 3f
       -1.1596404 -1.1720294 1.0657004 0.90294135
0002a0 1c e8 62 3f 13 78 7c 3f fd ed 70 3f ed 5b 71 3f
       0.8863542 0.9862072 0.9411314 0.9428089
0002b0 1f ba 80 3f 9e 66 76 3f 78 ca 87 bf 8a d5 8a bf
       1.00568 0.9625033 -1.0608664 -1.0846417
0002c0 9e 2b 5b 3f 26 f9 92 3f bf e3 6d 3f ec fe 85 3f
       0.8561343 1.1482284 0.9292564 1.0468421
0002d0 d7 d9 87 bf b7 d6 81 3f 76 18 95 3f ca 6c 8a 3f
       -1.0613354 1.0143651 1.164809 1.081445
0002e0 3d c8 58 3f 1a fb 88 3f 9a 7a 95 3f f0 f3 85 3f
       0.8468054 1.070163 1.167804 1.0465069
0002f0 83 2b 8f 3f de 4e 96 3f 98 77 83 bf 49 b2 84 3f
       1.1185154 1.1742818 -1.0270872 1.0366908
000300 13 ba 8f bf b9 a9 84 bf 28 7c 5e bf 8e 99 8b 3f
       -1.122866 -1.0364295 -0.869082 1.0906236
000310 81 51 8e bf 04 25 92 bf 11 13 61 3f c9 56 53 3f
       -1.1118623 -1.1417546 0.8791972 0.825543
000320 61 14 5d 3f fe ce 74 3f 4d 45 8f 3f 94 c9 83 3f
       0.8635922 0.95628345 1.1193024 1.0295892
000330 34 94 5d 3f 0a b2 5b 3f a2 7c 69 bf cb d4 90 bf
       0.86554265 0.8581854 -0.912058 -1.1314939
000340 89 6d 7a 3f c0 da 8a 3f 38 0e 6b 3f be 10 7b 3f
       0.9782339 1.0848007 0.9181857 0.9807242
000350 37 f8 81 bf 22 4b 75 3f e8 0d 69 3f 7a a8 57 3f
       -1.0153874 0.9581777 0.91036844 0.8424145
000360 fc 6a 5b 3f 8d c4 67 3f ba da 95 3f 29 24 6a 3f
       0.8571012 0.9053429 1.1707375 0.91461426
000370 2e 9c 61 3f 19 7c 85 3f fd 86 73 bf d5 65 8c 3f
       0.88128936 1.0428497 -0.9512785 1.0968577
000380 d3 99 5d bf 7a cc 66 bf 63 6f 96 bf bc 01 82 3f
       -0.8656284 -0.90155756 -1.1752743 1.0156779
000390 33 96 64 bf 62 17 82 bf 0f 55 65 3f 55 92 95 3f
       -0.89291686 -1.0163386 0.89582914 1.1685282
0003a0 cc 12 6f 3f ff 3b 66 3f 43 33 57 3f bf 02 81 3f
       0.93388057 0.89935297 0.84062594 1.0078963
0003b0 e6 06 8a 3f 45 02 85 3f 05 0d 77 bf 0c 29 91 bf
       1.0783355 1.0391318 -0.9650424 -1.1340652
0003c0 b0 bc 55 3f 01 66 80 3f e7 a1 94 3f e3 0d 8d 3f
       0.8349104 1.0031129 1.1611909 1.1019863
0003d0 a8 2c 8d bf 21 20 7a 3f 8c a3 5e 3f 01 2b 6a 3f
       -1.1029253 0.97705275 0.869683 0.9147187
0003e0 08 19 84 3f 4e 52 8c 3f 6d be 92 3f 86 73 56 3f
       1.0320139 1.0962617 1.1464363 0.83770025
0003f0 08 21 8f 3f 05 15 60 3f b4 0d 6f bf f9 25 93 3f
       1.1181955 0.87532073 -0.93380284 1.1495963

2.bias f4 [64]
000000 54 5a 6a bf 9e 2d 86 3f 41 9e 6e 3f ad 6f 64 bf
       -0.9154408 1.0482671 0.93210226 -0.89232904
000010 5a 45 87 bf 72 c0 80 bf 7b 9e 88 bf b6 76 95 bf
       -1.056804 -1.005873 -1.0673364 -1.1676853
000020 02 b4 78 bf e3 89 86 3f 79 64 8b bf 12 3d 64 bf
       -0.9714967 1.051083 -1.0890037 -0.89155686
000030 65 67 57 3f 1a 60 54 3f 63 0c 64 3f f5 d1 87 bf
       0.8414214 0.8295914 0.890814 -1.0610949
000040 5c f9 7a 3f 68 5f 84 bf 9f 58 6b bf bf db 93 bf
       0.9803674 -1.0341616 -0.919321 -1.1551436
000050 f2 54 83 3f 5f 37 7f bf fc 0b 74 bf 54 7e 96 3f
       1.0260298 -0.99693865 -0.95330787 1.1757302
000060 0e ed 8d 3f 65 87 8c bf c6 8a 92 bf 66 7a 85 bf
       1.1087968 -1.0978819 -1.14486 -1.0427978
000070 86 4c 69 3f 38 31 70 bf ca 95 7f bf b8 99 5b bf
       0.9113239 -0.938251 -0.99837935 -0.8578143
000080 3e 39 6e bf d0 ad 77 3f d0 71 7e bf 40 6b 85 3f
       -0.93056095 0.9674959 -0.99392414 1.0423355
000090 c9 ce 82 bf 78 7b 5b bf 7f 9d 5c 3f 5b 07 8b 3f
       -1.0219356 -0.85735273 0.8617782 1.086162
0000a0 78 6c 8e bf ce d2 93 bf 34 a5 84 bf c5 06 8b 3f
       -1.1126852 -1.1548707 -1.0362916 1.0861441
0000b0 50 06 60 bf 9d ad 85 3f b1 16 7c 3f 89 76 7d 3f
       -0.8750963 1.0443608 0.98472124 0.99008995
0000c0 38 2c 89 bf 5f f0 7b 3f 87 df 7c 3f 64 7d 59 bf
       -1.071662 0.9841365 0.98778576 -0.84956956
0000d0 18 3e 8d 3f 63 1b 92 bf f6 17 80 3f 43 2a 64 3f
       1.1034575 -1.1414608 1.0007312 0.89126986
0000e0 f2 d0 78 3f 6b 08 5c 3f 49 3c 74 bf ed 50 90 bf
       0.97193825 0.85950345 -0.9540449 -1.1274697
0000f0 98 56 96 3f cc d2 5d bf 67 93 8f bf 8b 4d 95 bf
       1.1745176 -0.86649776 -1.1216859 -1.1664289

4.weight f4 [32, 64]
000000 d1 9f 80 3f 30 11 77 3f 72 b2 84 3f b7 56 6a 3f
       1.0048772 0.965106 1.0366957 0.91538566
000010 ad e6 72 bf ea d1 8d bf 82 1c 6f 3f 72 2d 6f 3f
       -0.94883233 -1.1079686 0.93402874 0.9342872
000020 04 be 87 3f 3c 6b 80 bf 5f 60 8f bf 4f 23 89 bf
       1.0604863 -1.0032725 -1.1201285 -1.07139
000030 89 67 87 bf 37 4f 62 3f 7a 0c 82 3f 8f b3 85 3f
       -1.0578471 0.8840212 1.0160058 1.0445422
000040 85 ef 82 bf f9 5d 86 bf 52 ce 7f 3f 60 b5 8c bf
       -1.0229346 -1.0497428 0.99924195 -1.0992851
000050 e0 83 6c 3f 6a 5d 80 bf 68 92 63 bf 8d eb 84 bf
       0.92388725 -1.0028508 -0.88895273 -1.0384384
000060 8d 23 70 bf 09 68 73 3f 58 42 84 bf ab 89 61 3f
       -0.93804246 0.9508062 -1.0332747 0.8810069
000070 79 41 8d 3f 62 94 8f 3f 08 56 80 bf 78 2a 8a 3f
       1.1035606 1.1217158 -1.0026255 1.079421
000080 6c d3 65 bf e4 1a 70 bf 84 3d 88 3f 5a 3b 8f bf
       -0.8977573 -0.9379103 1.0643773 -1.1189988
000090 e3 08 8f bf 4d 70 67 3f a7 fd 75 bf 1c 52 64 3f
       -1.1174587 0.9040573 -0.9609017 0.8918779
0000a0 a8 36 8c bf 57 c1 87 bf 8c 81 62 3f f5 f4 7f bf
       -1.095418 -1.0605878 0.8847892 -0.9998315
0000b0 eb 4e 82 3f fa 5c 89 bf ea 79 8a 3f f3 d9 73 3f
       1.0180334 -1.0731499 1.0818455 0.9525444
0000c0 22 81 84 bf a4 30 8c 3f bd 86 64 bf 35 54 7c 3f
       -1.0351908 1.0952344 -0.89268094 0.9856599
0000d0 6d 7c 8b bf 54 f2 6f 3f d5 ec 7b bf e7 3d 6d bf
       -1.0897347 0.9372914 -0.9840825 -0.9267258
0000e0 a8 11 70 bf b8 10 87 bf 8e bf 61 3f cc fe 63 3f
       -0.9377694 -1.0551977 0.88182914 0.89060664
0000f0 a9 d1 75 3f 61 33 80 3f d3 2f 87 bf 89 b2 66 3f
       0.9602304 1.001568 -1.056147 0.90116173
000100 a9 a0 7c bf 2a b3 8c bf 69 49 8c bf d3 01 8d bf
       -0.9868265 -1.0992177 -1.0959903 -1.1016182
000110 2e 54 77 3f d3 21 8e 3f 97 7d 73 bf a8 e5 81 bf
       0.96612823 1.1104072 -0.9511351 -1.014821
000120 fc 69 79 bf 10 5f 86 3f dc 17 80 3f 8b 30 66 3f
       -0.97427344 1.0497761 1.0007281 0.8991782
000130 cb 48 6c 3f a2 de 8a bf 01 68 80 bf 7c a5 8e bf
       0.92298573 -1.0849192 -1.003174 -1.1144252
000140 84 2e 7a 3f 6a 4c 74 3f 9e 98 60 bf 54 01 8d 3f
       0.9772723 0.954291 -0.87732875 1.101603
000150 a6 69 6d bf b6 e5 80 3f a7 a3 75 3f c4 14 84 3f
       -0.9273933 1.0070102 0.9595284 1.0318837
000160 e8 e3 69 3f f6 d2 86 bf 59 92 79 3f 5f c2 83 bf
       0.9136338 -1.053313 0.97488934 -1.0293692
000170 26 28 8f bf 6b 47 73 bf fc 2c 8d 3f 3e d3 88 bf
       -1.1184127 -0.9503085 1.1029353 -1.0689466
000180 24 50 84 3f ed 49 7c 3f 63 95 80 bf c2 ee 80 3f
       1.0336957 0.985503 -1.0045589 1.0072863
000190 85 dd 8d 3f 58 b6 7b bf 1b c1 6b 3f 62 c1 85 bf
       1.1083227 -0.9832511 0.9209153 -1.0449641
0001a0 01 d1 87 3f 2c fe 84 3f c6 60 7f bf d8 c6 7b 3f
       1.0610658 1.0390067 -0.9975704 0.98350286
0001b0 a8 39 86 bf 70 a4 74 3f 95 70 88 bf a4 c1 7a bf
       -1.0486345 0.9556341 -1.0659357 -0.9795172
0001c0 54 7e 84 3f 04 7f 67 bf 4f c5 78 3f 8c b5 7d bf
       1.0351052 -0.90428185 0.9717607 -0.99105144
0001d0 33 57 8a 3f 8c 14 72 bf 49 0e 82 3f 9c ea 84 3f
       1.0807861 -0.945626 1.016061 1.0384097
0001e0 9c d4 80 3f f7 8c 64 3f 30 c4 7e bf 4c 7f 83 bf
       1.0064883 0.89277595 -0.9951811 -1.0273223
0001f0 6f 1f 63 bf ac 1d 63 bf 9b 2c 83 3f f5 65 63 bf
       -0.8871984 -0.8871715 1.0247988 -0.8882745
000200 f5 84 6f 3f 22 e8 8d 3f 97 c6 8d 3f e3 c6 7e 3f
       0.9356225 1.1086466 1.107623 0.9952223
000210 14 d7 8c bf c3 29 85 bf 3c 71 77 3f a8 43 80 3f
       -1.1003137 -1.040337 0.96657157 1.0020647
000220 b6 fc 62 3f d0 11 7a bf 7f a7 86 bf be 18 84 bf
       0.88666856 -0.9768343 -1.0519866 -1.0320051
000230 8d 43 88 bf 62 3e 79 3f e1 47 62 3f dd 08 6f 3f
       -1.0645615 0.97360814 0.8839093 0.933729
000240 4e 0d 7d bf f9 07 6b bf 3a 8a 8e 3f 71 1a 8c bf
       -0.98848426 -0.9180904 1.1135933 -1.0945569
000250 ff b7 86 3f e5 04 89 bf da 5e 8c bf 5d b4 80 bf
       1.0524901 -1.0704619 -1.0966446 -1.0055043
000260 a8 2d 89 bf ac 70 64 3f dc f3 8e bf b2 94 6a 3f
       -1.0717058 0.89234424 -1.116817 0.9163314
000270 d3 25 8d 3f 5f ec 88 3f 63 55 86 bf ec 94 6a 3f
       1.1027168 1.0697135 -1.0494808 0.91633487
000280 d0 4e 8c bf c6 72 89 bf 00 d5 72 3f f7 c7 6c bf
       -1.0961552 -1.0738151 0.9485626 -0.9249262
000290 1c 87 75 bf 07 ab 73 3f 5f f8 69 bf da 1e 6c 3f
       -0.95909286 0.9518284 -0.9139461 0.92234576
0002a0 f6 08 8d bf 16 04 79 bf ec 5a 6e 3f 8c e5 76 bf
       -1.101836 -0.9727186 0.93107486 -0.9644401
0002b0 46 8e 8d 3f 04 91 87 bf 86 ab 69 3f bc 05 86 3f
       1.1059043 -1.059113 0.9127735 1.04705
0002c0 49 73 8e bf 5c 46 8e 3f 5c 8e 87 bf 3f bc 87 3f
       -1.1128932 1.1115222 -1.059032 1.0604323
0002d0 06 b9 8c bf 16 57 6a 3f 9b 79 7c bf 85 a0 74 bf
       -1.0993965 0.9153913 -0.98623055 -0.95557433
0002e0 f6 2f 67 bf bc 3c 65 bf dc 28 7e 3f c6 e2 7b 3f
       -0.9030756 -0.895458 0.99281096 0.98392904
0002f0 12 a5 82 3f 12 91 78 3f 21 e9 7e bf c7 b1 61 3f
       1.0206625 0.9709636 -0.99574476 0.8816189
000300 1e bb 65 3f d7 f6 8a 3f f1 4c 6d 3f 8a 99 8c 3f
       0.89738643 1.085658 0.9269553 1.0984356
000310 f9 7c 7c bf 8e 34 78 bf c4 8a 8e 3f ae 33 6e 3f
       -0.98628193 -0.9695519 1.1136098 0.93047607
000320 d3 f2 7a 3f 9f 54 7a bf 45 11 75 bf 48 92 8f bf
       0.9802677 -0.9778537 -0.95729476 -1.1216516
000330 67 a0 74 bf f9 20 6d 3f 02 1a 82 3f 26 d3 8a 3f
       -0.95557255 0.9262844 1.0164187 1.0845687
000340 06 98 81 bf 94 81 80 bf ee 9b 7d 3f eb 4b 65 bf
       -1.0124519 -1.0039544 0.99066055 -0.89568967
000350 e0 17 89 3f 5a 9e 7a bf 09 a1 89 bf 47 b0 88 bf
       1.0710411 -0.97897875 -1.0752269 -1.0678796
000360 9e 82 66 bf be 82 8b 3f bf 78 6d bf 8c 0c 67 3f
       -0.90043056 1.0899274 -0.9276237 0.9025352
000370 ef 75 8c 3f e8 f0 7c 3f 7a 6c 68 bf 93 e5 8d 3f
       1.097349 0.98805094 -0.9079052 1.1085685
000380 11 7e 7c bf 6b a8 86 bf e7 0c 8f 3f 82 56 88 bf
       -0.9862986 -1.0520147 1.1175812 -1.06514
000390 39 17 6b bf c5 50 61 3f 3e 08 85 bf c2 19 64 3f
       -0.9183231 0.8801387 -1.039314 0.89101803
0003a0 5e 2d 87 bf 85 69 72 bf 34 12 69 3f 3d d6 8d bf
       -1.056072 -0.9469226 0.910434 -1.1081005
0003b0 ca 70 8b 3f f1 ea 6e bf 6b a6 7f 3f f4 70 69 3f
       1.0893795 -0.9332724 0.9986331 0.9118798
0003c0 2e 3d 84 bf 97 a3 75 3f b1 3c 6c bf 80 88 75 3f
       -1.033117 0.95952743 -0.9228011 0.9591141
0003d0 b6 9b 84 bf 06 51 69 3f 2a 89 87 bf 73 ac 6e bf
       -1.0360019 0.91139257 -1.0588734 -0.93231887
0003e0 03 62 6b bf ce 59 7b bf 5e fe 73 3f 2b 5e 8f 3f
       -0.9194643 -0.98183906 0.9531001 1.1200613
0003f0 77 28 83 3f e9 a5 73 3f a9 8b 85 bf 84 85 7b 3f
       1.0246724 0.95175034 -1.0433246 0.98250604

4.bias f4 [32]
000000 b1 ce 83 3f 90 2a 71 bf ea b2 75 3f ad 76 8a 3f
       1.0297452 -0.9420557 0.95976126 1.0817467
000010 23 66 7b bf 71 92 79 3f 48 d5 79 bf 24 98 8c bf
       -0.98202723 0.97489077 -0.97591066 -1.098393
000020 9b 96 80 3f 7b 56 87 3f 1e 09 62 3f b6 7f 88 bf
       1.0045961 1.0573267 0.8829516 -1.0663974
000030 87 f3 6b bf e3 5c 80 3f 85 8b 80 bf 03 bc 7c bf
       -0.9216847 1.0028347 -1.0042578 -0.98724383
000040 5e 2e 87 bf d9 89 65 bf 21 96 81 bf 35 59 74 3f
       -1.0561025 -0.89663464 -1.0123941 0.9544862
000050 18 6c 88 3f 6a 5d 65 3f f5 18 7a 3f d4 9c 81 3f
       1.0657988 0.89595664 0.9769433 1.0125985
000060 ac 11 76 3f 43 b5 88 3f fb a9 8d bf 4c c6 76 3f
       0.96120715 1.0680317 -1.1067499 0.96396327
000070 8a b9 86 bf 2a ce 8e 3f b1 3a 73 bf 12 21 68 3f
       -1.0525372 1.1156666 -0.9501143 0.9067546

6.weight f4 [1, 32]
000000 04 c5 88 3f d8 7a 80 bf 92 92 56 bf 84 06 67 bf
       1.0685124 -1.0037489 -0.838174 -0.9024432
000010 0c 37 8d bf 7b 2b 94 3f e9 e7 77 3f 08 27 85 bf
       -1.1032424 1.1575769 0.9683824 -1.0402536
000020 b0 77 72 bf f1 09 53 bf 66 58 72 bf d3 55 54 3f
       -0.9471388 -0.82437044 -0.94666135 0.8294346
000030 b2 8d 71 3f f9 db 55 bf a0 f9 87 bf cc e2 8a bf
       0.94356835 -0.83538777 -1.0623055 -1.0850463
000040 38 09 92 bf cb 04 67 3f d2 41 67 3f 20 31 75 bf
       -1.1409063 0.9024169 0.9033481 -0.95778084
000050 4c 0a 89 3f 55 cf 54 bf 83 d9 8e 3f d0 54 7f bf
       1.0706267 -0.83128864 1.1160129 -0.9973879
000060 ef 33 8c 3f 05 22 66 bf 46 84 93 bf 25 2a 69 bf
       1.0953349 -0.8989566 -1.1524742 -0.9107993
000070 eb 0a 61 3f 27 79 91 3f 14 51 6c 3f 32 9c 76 bf
       0.87907284 1.1365098 0.92311215 -0.96332085
